peia/static/model_parameters.pt (torch, 217497 bytes, 86 tensors)

mother_tongue_pre_embed.weight f4 [38, 1]
0	0xbe013f89	-0.12621893
1	0x297aa1ad	5.5651383e-14
2	0x3bc49ad9	0.0059999046
3	0xbeeb5f02	-0.45970923
4	0x3aa67315	0.0012699092
5	0xb29423cc	-1.7245746e-08
6	0x3af06e88	0.0018343488
7	0xbe63bd7a	-0.22240248
8	0x3ef07ead	0.46971646
9	0x3e31673d	0.17324539
10	0xb4162b48	-1.3985584e-07
11	0x3dc17ce6	0.094476506
12	0xbe6f0ed9	-0.23345508
13	0x3ebb51bd	0.365858
14	0x3e2af809	0.1669618
15	0xbca7955c	-0.020456962
16	0x3c2d6f7c	0.010585662
17	0xbcc96ac3	-0.02458704
18	0x3da6abf2	0.08138265
19	0xbe4607e1	-0.19338943
20	0x3868402d	5.537288e-05
21	0x3aeea3da	0.001820679
22	0xb90e85dd	-0.00013592043
23	0xbca690dc	-0.020332746
24	0x3d4ff757	0.05077299
25	0x3197a12d	4.413002e-09
26	0x3c1cbf5f	0.009567111
27	0x3ccad04f	0.024757532
28	0x39d7a69a	0.00041132123
29	0x3e543f4b	0.2072727
30	0xbd96567c	-0.07340714
31	0x3a99c711	0.00117323
32	0x3e46e68c	0.19423884
33	0xbb91ad9f	-0.004445746
34	0x3d3bc1a9	0.045838986
35	0xb555cdac	-7.9647975e-07
36	0x3bc03a03	0.0058662905
37	0x8000190f	-8.99e-42

embedder.user_embeddings.age.linear.weight f4 [32, 1]
0	0xbd5c5c0f	-0.05379873
1	0xbbb0a1e9	-0.005390395
2	0x3dfe87d6	0.124282524
3	0xbc72020a	-0.014770994
4	0x3cb0b909	0.021572607
5	0xbc561995	-0.013067623
6	0x3e9dd087	0.30823156
7	0x3d8dffdb	0.06933566
8	0x3e8268ae	0.2547049
9	0x3ce73279	0.02822231
10	0xbe59373c	-0.21212476
11	0x3e30f7a8	0.17281973
12	0x3cbd450b	0.023104211
13	0x3c78f3d2	0.01519485
14	0x3db05d59	0.08611555
15	0x3db5c658	0.08875722
16	0x3ce23c97	0.027616782
17	0x3e9a0300	0.30080414
18	0xbd7b3830	-0.06133288
19	0xbecfe077	-0.4060094
20	0x3c177e11	0.009246365
21	0x3c91f019	0.017814683
22	0x3cc8882f	0.024479
23	0x3e5e2dc5	0.21697147
24	0xba4a17f3	-0.0007709257
25	0xbe4795cf	-0.19490741
26	0x3be2e9db	0.0069248504
27	0xbbd4ed51	-0.006498017
28	0x3e2cbe4a	0.16869465
29	0xbcaea23f	-0.0213176
30	0x3cabbfcd	0.020965481
31	0x3d82e528	0.06391364

embedder.user_embeddings.age.linear.bias f4 [32]
0	0xbbbdbbc5	-0.005790206
1	0x3b0a4186	0.0021096184
2	0xbb8b22ad	-0.004246077
3	0x3b793747	0.0038027333
4	0xbb901ac7	-0.0043977234
5	0xbb792d51	-0.0038021395
6	0x3bad7152	0.00529305
7	0x3c4850fc	0.012226339
8	0xbbd55837	-0.00651076
9	0xbb3e9281	-0.0029079022
10	0x3c9a4a5d	0.018834287
11	0xbb8a5027	-0.0042209807
12	0xbadaa00d	-0.0016679779
13	0xbb43e9b0	-0.0029893927
14	0xbb1e0d3a	-0.002411677
15	0x3b018be1	0.0019767212
16	0xbb5c3a11	-0.0033603946
17	0x3c1ee200	0.009697437
18	0x3b36dac7	0.0027901398
19	0xbd90171f	-0.0703566
20	0xbb4d3454	-0.0031311708
21	0xbc0d9376	-0.008641114
22	0xbb7c8952	-0.0038533998
23	0xbc2c2f3a	-0.010509307
24	0xbc35001d	-0.01104739
25	0x3c5a7dc0	0.013335645
26	0xba8508bf	-0.0010149701
27	0x3af4c4c3	0.0018674362
28	0x3baf9b9d	0.0053591267
29	0x3b40f154	0.0029440718
30	0xbb3d38d8	-0.0028872993
31	0x3c4ba9ed	0.01243065

embedder.user_embeddings.age.LayerNorm.weight f4 [32]
0	0x3e576ff0	0.21038795
1	0xbb212e5f	-0.002459429
2	0x3d988004	0.07446292
3	0x3cf59435	0.029977897
4	0x3c85bcbc	0.016325347
5	0x3e184d27	0.14873181
6	0x3ea6aaf0	0.3255229
7	0xbc2ce9bb	-0.010553773
8	0x3e9830d8	0.29724765
9	0x3c0893df	0.0083360365
10	0x3e6621b7	0.22473799
11	0x3df2bb7e	0.118521675
12	0x3bb32ac7	0.005467746
13	0x3ba29eb1	0.004962765
14	0x3de3508b	0.11099347
15	0x3d501917	0.050805178
16	0x3c6ec818	0.014574073
17	0x3eb8eb85	0.36117187
18	0x3e6a18de	0.22861049
19	0x3f006283	0.50150317
20	0x3cb89d2d	0.022535885
21	0xbca5d120	-0.02024132
22	0x3bb941fc	0.005653618
23	0x3de88a9e	0.11354564
24	0x3dae82ea	0.085210636
25	0x3e9723f3	0.29519615
26	0x3bbf6d7f	0.0058419104
27	0x3d218fc3	0.039443742
28	0x3e7cebd6	0.2469934
29	0x3d226a64	0.039652243
30	0x3c6446cc	0.013932895
31	0x3c9d9f18	0.0192409

embedder.user_embeddings.age.LayerNorm.bias f4 [32]
0	0x3d0b392b	0.033990066
1	0x3cbb497c	0.022862189
2	0xbd9d46cb	-0.07679518
3	0x3d21eb1f	0.03953087
4	0x3c5baf0e	0.0134084355
5	0x3d2ed370	0.04268211
6	0xbb6e565c	-0.0036367392
7	0x3c46ef0d	0.012141955
8	0xbdacfa84	-0.084462196
9	0xbc1e33fe	-0.009655951
10	0x3daa1943	0.083055995
11	0xbd9e28b9	-0.07722611
12	0x3cb0fe7f	0.021605728
13	0x3caf1939	0.021374332
14	0xbd9d278a	-0.07673557
15	0xbd608b78	-0.054820508
16	0xbc835463	-0.01603145
17	0xbd1e3305	-0.038622875
18	0x3d773e1e	0.060361974
19	0xbc8f707b	-0.01750969
20	0x3b3adbd1	0.0028512368
21	0xbcfd70f5	-0.030937651
22	0xbc7884b9	-0.015168362
23	0xbdcf8f07	-0.10134702
24	0xbb4bf3bd	-0.003112062
25	0x3d873d46	0.06603484
26	0x3cc4aefd	0.024009222
27	0x3cfe54e8	0.031046346
28	0xbd0b7008	-0.03404239
29	0x3d753823	0.05986799
30	0x3c941dc7	0.018080605
31	0xbd45833d	-0.04822086

embedder.user_embeddings.gender.linear.weight f4 [32, 1]
0	0xbaa52bd4	-0.0012601563
1	0xbc5bf216	-0.013424417
2	0x3dd22728	0.10261375
3	0xbda50e50	-0.080593705
4	0x3df1d305	0.11807827
5	0x3c406f46	0.01174528
6	0x3b4fea29	0.0031725264
7	0xbcd2f74d	-0.025752688
8	0x3acd74f0	0.0015675109
9	0x3ae91c93	0.0017785005
10	0xbd21b709	-0.039481197
11	0x3e53a28d	0.20667477
12	0x3ddad96a	0.10686
13	0x3b3bbea5	0.0028647569
14	0xbad366f4	-0.0016128705
15	0xbdab4118	-0.08362025
16	0x3d8f8128	0.070070565
17	0x3d1154b7	0.03548118
18	0xbc42d73a	-0.011892134
19	0x3bf9d5c7	0.007624361
20	0x3d0948cc	0.03351669
21	0xbdfac56f	-0.12244689
22	0x3c175dc3	0.009238663
23	0x3b99e6ef	0.004696719
24	0x3cb08422	0.02154738
25	0xbc94d84c	-0.018169545
26	0xbc953d92	-0.018217836
27	0x3d9f2b1c	0.07771894
28	0xbb25dc66	-0.002530837
29	0xbe953359	-0.29140738
30	0x3bb99fe5	0.005664813
31	0x3d5195fc	0.051168427

embedder.user_embeddings.gender.linear.bias f4 [32]
0	0x3d2e527d	0.042559136
1	0xbd14e95a	-0.036355354
2	0x3ed4e8d6	0.4158389
3	0x3df7aacf	0.12093126
4	0x3dbd57a0	0.09245229
5	0xbd3b6036	-0.04574605
6	0x3d16e105	0.03683569
7	0x3d97c3b1	0.07410372
8	0xbd22bfb8	-0.03973362
9	0xbcab805e	-0.020935234
10	0x3e2bdf87	0.16784488
11	0xbeafd575	-0.34342542
12	0x3dbe47c5	0.09291033
13	0x3d6d3956	0.057916008
14	0xbd5f991c	-0.054589376
15	0xbd97825d	-0.07397912
16	0xbdb170c8	-0.086640894
17	0xbd86c2a2	-0.06580092
18	0x3d8a5119	0.067537494
19	0xbd07b01a	-0.033126928
20	0x3df0dbb5	0.11760656
21	0xbef4f62f	-0.47844073
22	0xbd0cb343	-0.034350645
23	0x3d11a735	0.03555985
24	0x3d13f99e	0.036126725
25	0xbd0c2e9c	-0.034224138
26	0x3d4fd306	0.050738357
27	0xbe49abfb	-0.19694512
28	0xbd6a9e87	-0.05728009
29	0x3e08a735	0.13345034
30	0x3d30c9d3	0.043161225
31	0xbe02d4c3	-0.12776475

embedder.user_embeddings.gender.LayerNorm.weight f4 [32]
0	0x3c96c6a0	0.018405259
1	0x3c97284c	0.018451832
2	0x3f08d2b1	0.5344649
3	0x3e16dcc3	0.14732651
4	0x3e2d4ee6	0.16924629
5	0x3d98946c	0.07450184
6	0x3db7b1c0	0.0896945
7	0x3d7aa65f	0.06119382
8	0x3db935d7	0.09043472
9	0x3d3146c1	0.043280367
10	0x3e8b1f05	0.27172104
11	0x3eb9d194	0.36292708
12	0x3e0c9095	0.13727029
13	0x3db75230	0.08951223
14	0x3e1dcfb6	0.15411267
15	0x3e243f69	0.16039814
16	0x3deabc34	0.11461678
17	0x3d1989d1	0.037484948
18	0x3da7032d	0.081549026
19	0x3e08d615	0.13362916
20	0x3e86edd3	0.2635332
21	0x3f06dae8	0.52677774
22	0x3db5c2c4	0.08875039
23	0x3d17d790	0.03707081
24	0x3dcbbb7a	0.09947868
25	0x3da39e27	0.079891495
26	0x3dac90f4	0.08426085
27	0x3e4c2375	0.19935401
28	0x3e005948	0.12534058
29	0x3e8d5cc5	0.2760984
30	0x3c090714	0.008363504
31	0x3e22888e	0.15872404

embedder.user_embeddings.gender.LayerNorm.bias f4 [32]
0	0x3c7c3f61	0.01539597
1	0xbcaf9830	-0.021434873
2	0x3c2827fe	0.010263441
3	0xbb99ea9a	-0.004697156
4	0xbdb3fa26	-0.087879464
5	0xbc996759	-0.018726038
6	0xbcc48672	-0.02398989
7	0xbcf1cde9	-0.02951713
8	0xbc45e185	-0.012077694
9	0x3bc329fd	0.005955933
10	0xbcebed9b	-0.028799823
11	0x3bb9acf7	0.005666371
12	0xbdb63965	-0.08897666
13	0xbd583402	-0.052783974
14	0x3d9f2ca7	0.07772189
15	0x3d995c4f	0.074883096
16	0xbc1b2ff9	-0.009471887
17	0x3c98c735	0.018649677
18	0x3bd215aa	0.006411274
19	0x3d0ac0c5	0.033875246
20	0x3c08bdf3	0.008346069
21	0xbd6da0e8	-0.05801478
22	0xbbc20d60	-0.0059220046
23	0x3c9fdf1c	0.019515567
24	0xbc5e992d	-0.013586325
25	0xbcd3af1f	-0.02584034
26	0x3d116ce7	0.035504248
27	0x3d6cfc6a	0.05785791
28	0x3c079357	0.008274875
29	0x3d97c379	0.0741033
30	0x3cdc3afa	0.026883591
31	0x3d0e906d	0.034805704

embedder.user_embeddings.gender.LayerNorm.bias f4 [32, 1]
0	0x3b9130f7	0.004430886
1	0xbdbd4f4c	-0.0924364
2	0xbd1b824c	-0.037966058
3	0xbda5054f	-0.08057653
4	0x3d409ffa	0.047027566
5	0x3b54c091	0.0032463411
6	0x3d1ccd2b	0.0382816
7	0x394acf86	0.0001934153
8	0xbe910edc	-0.2833165
9	0x3c85d146	0.01633514
10	0x3d357985	0.044305343
11	0xbe1ad7dc	-0.15121406
12	0x3e0099bd	0.12558647
13	0xbe4c0e08	-0.19927227
14	0x3c6a887e	0.014314769
15	0x3e2225d3	0.15834741
16	0x3c5c5a9c	0.013449337
17	0x3d939751	0.07206596
18	0xbd735e31	-0.059416
19	0xbd461748	-0.048362046
20	0x3d08c7fe	0.033393852
21	0x3d2cec7d	0.04221772
22	0x3d4e21b4	0.05032511
23	0x3c0c9cd3	0.008582312
24	0x3c16d109	0.009205111
25	0x39ee9f0d	0.000455134
26	0xbb096e79	-0.0020970388
27	0xbe0502ad	-0.12989302
28	0xbcfc4265	-0.030793378
29	0x3cc34d4a	0.023840565
30	0x3e65684a	0.22403064
31	0x3e8142f3	0.2524639

embedder.user_embeddings.gender.LayerNorm.bias f4 [32]
0	0xbbbcdee3	-0.005763875
1	0xbf086506	-0.5327915
2	0x3cee2b1a	0.029073287
3	0x3d1240b0	0.035706222
4	0x3e563b10	0.20920968
5	0x3bad4b5e	0.0052885255
6	0xbe6c228e	-0.23060057
7	0xbe846b6b	-0.25863203
8	0x3e65e099	0.22448958
9	0xbcc983e7	-0.024599029
10	0xbdfbf628	-0.1230281
11	0x3d3888db	0.04505239
12	0xbde80c49	-0.11330468
13	0xbdb0e448	-0.08637291
14	0x3dab3ae0	0.08360839
15	0xbd9b431a	-0.07581158
16	0x3e8a62a6	0.27028388
17	0xbdef3611	-0.11680234
18	0x3ee57703	0.4481736
19	0x3e1c8c85	0.15287979
20	0xbe7f2867	-0.24917756
21	0xbe3ddf52	-0.18542221
22	0xbd2b39b4	-0.041803077
23	0xbd1f5de1	-0.03890789
24	0xbc505a5c	-0.012716856
25	0x3bab334b	0.0052246205
26	0xba809c03	-0.000981212
27	0x3e59ddbb	0.2127599
28	0x3de5c6c3	0.112195514
29	0xbdb59f5b	-0.08868285
30	0xbea93af3	-0.33052787
31	0xbe155b49	-0.14585604

embedder.user_embeddings.gender.LayerNorm.bias f4 [32]
0	0x3a9f3958	0.0012147827
1	0x3f0f932e	0.56083953
2	0x3d7dabd4	0.061931446
3	0x3dccdfe2	0.1000364
4	0x3e439314	0.19099075
5	0x3d7e0a09	0.06202129
6	0x3e118d27	0.14214002
7	0x3e984da0	0.29746723
8	0x3e8ee2e7	0.27907488
9	0x3c993e67	0.018706514
10	0x3e436edc	0.19085258
11	0x3e04d6e6	0.12972602
12	0x3dabf951	0.08397163
13	0x3e51549d	0.20442434
14	0x3e3c233a	0.18372813
15	0x3e0bf113	0.13666181
16	0x3e9136c5	0.28362098
17	0x3dc566c1	0.096387394
18	0x3ee7745b	0.4520596
19	0x3e2a440b	0.16627519
20	0x3eaa829a	0.33302766
21	0x3e303013	0.17205839
22	0x3ca09add	0.019605095
23	0x3d5add07	0.053433444
24	0x3cbae54b	0.022814414
25	0x3d880a3b	0.06642576
26	0x3c06a197	0.008217237
27	0x3e59b1b6	0.21259198
28	0x3d914f77	0.07095235
29	0x3d63b14f	0.055589017
30	0x3ec88f8d	0.3917202
31	0x3e485f2d	0.19567557

embedder.user_embeddings.gender.LayerNorm.bias f4 [32]
0	0xbc8fab6c	-0.017537795
1	0xbd1482f4	-0.0362577
2	0x3b080989	0.0020757637
3	0x3c1898a2	0.009313734
4	0xbde58fd6	-0.11209075
5	0x3c8561b4	0.01628194
6	0x3db5be41	0.08874179
7	0x3d2c2c68	0.042034537
8	0xbd90a9c9	-0.07063634
9	0x3cb7a8bd	0.022419328
10	0x3cdef30c	0.027215503
11	0xbc9d6401	-0.019212725
12	0xbc7beb11	-0.015375868
13	0x3c5c6f8c	0.013454329
14	0xbcb33e38	-0.021880254
15	0x3b466f89	0.0030278882
16	0x3c88309b	0.01662474
17	0x3c4a4d76	0.01234757
18	0x3d489657	0.0489715
19	0xbd78b86b	-0.06072275
20	0x3d13ef08	0.03611663
21	0x3d81c6ee	0.06336771
22	0xbd09306b	-0.03349344
23	0xbc5ca337	-0.013466648
24	0x3cff5cb9	0.031172143
25	0x3bbe1cbe	0.005801766
26	0x3c8e2b05	0.017354498
27	0xbd808040	-0.06274462
28	0xbda465b3	-0.0802721
29	0x3cabe23d	0.020981902
30	0xbc4dce11	-0.012561337
31	0x3cf119d3	0.02943126

embedder.mood_embeddings.mood.linear.weight f4 [32, 1]
0	0x3de6e16e	0.11273466
1	0x3d47f7e6	0.0488204
2	0x3cb5d4e5	0.022196243
3	0x3ee46df4	0.44615138
4	0xbdf309be	-0.118670925
5	0x3d0db3b2	0.0345952
6	0xbe7072a8	-0.23481238
7	0xbec9a86b	-0.39386305
8	0x3ee2bcd8	0.442847
9	0x3b110231	0.002212655
10	0xbee2fd71	-0.44333985
11	0x3e9c0ac7	0.30476972
12	0x3c534e68	0.0128971115
13	0x3ea48e03	0.32139596
14	0x3ec11889	0.3771403
15	0xbc20be89	-0.009811052
16	0x3cfadaca	0.030621905
17	0xbe0e4353	-0.1389287
18	0xbc6d5554	-0.014485676
19	0xbee554d5	-0.44791284
20	0xbea38aa3	-0.3194171
21	0xbca94c8a	-0.02066638
22	0x3bf6a78b	0.007527297
23	0xbed51055	-0.41614023
24	0x3ed283f9	0.41116312
25	0x3ce06077	0.027389748
26	0xbe9f85d3	-0.31156787
27	0x3d1b1fea	0.037872232
28	0xbe50abf1	-0.2037809
29	0x3d997704	0.074934036
30	0x3cc4b88b	0.024013778
31	0x3ea5d28c	0.32387197

embedder.mood_embeddings.mood.linear.bias f4 [32]
0	0xbe063806	-0.13107309
1	0x3e857d7e	0.26072305
2	0x3cc20d05	0.023687849
3	0xbd89397a	-0.06700416
4	0xbb2ecdd1	-0.002667297
5	0xbc9eac5e	-0.0193693
6	0x3e3105be	0.17287347
7	0x3da5e9b4	0.08101216
8	0xbde302b8	-0.11084503
9	0x3d1b7880	0.037956715
10	0xbcb32c81	-0.021871807
11	0xbd3eea8d	-0.046610404
12	0x3d4db8b8	0.05022499
13	0xbda08013	-0.07836928
14	0xbc848e47	-0.016181124
15	0x3cab95e2	0.020945493
16	0xbbb10c1f	-0.0054030563
17	0xbd45c76f	-0.048285898
18	0x3c792a78	0.015207879
19	0xbe2bf743	-0.16793542
20	0x3c87168d	0.016490245
21	0x3ce39d55	0.027784983
22	0x3d310152	0.04321415
23	0x3d000459	0.031254146
24	0x3decae17	0.115566425
25	0x3c647737	0.013944439
26	0xbddc9abc	-0.10771701
27	0xbd048c50	-0.032360375
28	0x3d654a2c	0.05597894
29	0xbdcaa768	-0.098952115
30	0xbc134c26	-0.008990323
31	0xbc4b8061	-0.012420745

embedder.mood_embeddings.mood.LayerNorm.weight f4 [32]
0	0x3de4af48	0.11166245
1	0x3ed5a2f8	0.41725898
2	0x3c7c1d7f	0.015387892
3	0x3ef0955c	0.46988952
4	0x3dd189f9	0.10231394
5	0x3d96ed64	0.073694974
6	0x3ebced24	0.36899674
7	0x3edad04e	0.4273705
8	0x3f212ca1	0.62958723
9	0xbc209415	-0.0098009305
10	0x3f1194e5	0.5686782
11	0x3ecd9278	0.4015081
12	0x3c4b569a	0.012410784
13	0x3ed54c64	0.41659844
14	0x3ed3f135	0.41394964
15	0x3c80fc6d	0.015745366
16	0xbac001d8	-0.0014648987
17	0x3e06fe39	0.13182916
18	0x3d72bfd0	0.059264958
19	0x3f1761e8	0.5913377
20	0x3ead1fb0	0.33813238
21	0xbbbcb9ca	-0.0057594525
22	0x3cdff5ce	0.027338888
23	0x3f0d440e	0.5518197
24	0x3eccf80e	0.40033
25	0x3c65b136	0.014019301
26	0x3eb651d1	0.35609296
27	0x3d0d2c25	0.034465928
28	0x3e3e4ca3	0.18583922
29	0x3d3ca6e9	0.046057615
30	0x3d07cd27	0.033154633
31	0x3eb7009c	0.35742652

embedder.mood_embeddings.mood.LayerNorm.bias f4 [32]
0	0x3cb8a3ee	0.022539105
1	0xbc355772	-0.011068212
2	0x3c97d821	0.018535675
3	0x3d207bbe	0.03918051
4	0x3d8327d7	0.06404083
5	0xbd0d56bd	-0.03450655
6	0x3d353bb6	0.044246398
7	0x3e0f81a8	0.14014304
8	0x3d46a164	0.048493758
9	0x3cb8d5ff	0.022562979
10	0xbc41f0bf	-0.0118371835
11	0xbda4e24c	-0.08050975
12	0x3c9d7ff7	0.019226057
13	0xbb006bf8	-0.0019595604
14	0xbccb44df	-0.024813114
15	0xbc95bd2a	-0.018278677
16	0x3c8abe29	0.016936379
17	0x3d852067	0.06500321
18	0xbc0685f8	-0.008210652
19	0xbded26f9	-0.11579699
20	0x3db30549	0.087412424
21	0x3d21048a	0.03931097
22	0xbbe7c739	-0.0070733097
23	0x3d09891d	0.033578027
24	0x3cefa314	0.029252566
25	0x3c97d3d9	0.018533634
26	0x3c0577c3	0.008146229
27	0xbce86e2e	-0.02837285
28	0x3d537a0d	0.05163007
29	0xbc8c9fb6	-0.017166
30	0xbcfc4b81	-0.030797722
31	0xbca44682	-0.020053152

embedder.mood_embeddings.amazement.linear.weight f4 [32, 1]
0	0xbdaad40b	-0.08341225
1	0x3f060afe	0.5236052
2	0x3bf613af	0.0075096707
3	0xbe238f2c	-0.15972584
4	0x3e37bc74	0.17942983
5	0x3db05fca	0.0861202
6	0x3e3dfbb2	0.18553045
7	0x3de126c8	0.10993725
8	0x3da49d0b	0.08037766
9	0xbd858d6a	-0.06521113
10	0xbcf6bbab	-0.030118784
11	0xbee91782	-0.45525748
12	0xbd0921eb	-0.033479612
13	0x3e77d621	0.24202777
14	0x3e08a838	0.1334542
15	0x3de3eae0	0.11128783
16	0x3c0fd14f	0.00877793
17	0xbba58b90	-0.0050520375
18	0xbc898350	-0.016786247
19	0x3c4ab6a9	0.012372651
20	0xbd6b2502	-0.05740834
21	0x3c7e0188	0.015503295
22	0xbea332ed	-0.3187479
23	0xbea8535c	-0.32876098
24	0xbcb009c2	-0.021489028
25	0x3c8a3677	0.016871674
26	0x3c4927db	0.012277569
27	0xbe0fe63b	-0.1405267
28	0xbc78ad74	-0.015178073
29	0xbcf7858b	-0.030215045
30	0x3e703977	0.23459421
31	0x3d978042	0.0739751

embedder.mood_embeddings.amazement.linear.bias f4 [32]
0	0x3e743263	0.23847346
1	0xbeb37125	-0.3504726
2	0x3df2d20a	0.11856468
3	0xbeb832a5	-0.3597614
4	0x3de61771	0.1123494
5	0xbe097a90	-0.1342566
6	0xbf097042	-0.53686917
7	0x3e3c0f68	0.18365252
8	0x3e0adce1	0.13560821
9	0xbe9aeac8	-0.3025725
10	0x3d0206a6	0.03174462
11	0x3f1abdc0	0.60445786
12	0x3bc79fac	0.0060920324
13	0x3e8fca06	0.2808382
14	0xbedb8575	-0.42875257
15	0xbe8b40eb	-0.27197966
16	0xbcf00a7a	-0.02930187
17	0xbbb957a2	-0.0056561986
18	0xbeb61c3a	-0.3556841
19	0xbf1c191f	-0.6097583
20	0x3c6992fd	0.014256236
21	0xbe123d38	-0.14281166
22	0xbdd8cc9e	-0.10585903
23	0x3eaafb96	0.3339507
24	0xbb91b9b8	-0.004447188
25	0xbe28257c	-0.16420549
26	0xbe1825cc	-0.14858168
27	0x3d099357	0.03358778
28	0xbcacebb6	-0.02110849
29	0x3d826311	0.06366552
30	0xbeb6f971	-0.35737184
31	0x3e943c92	0.2895246

embedder.mood_embeddings.amazement.LayerNorm.weight f4 [32]
0	0x3ed1d350	0.4098153
1	0x3f11bd44	0.5692942
2	0x3e82a881	0.25519183
3	0x3ef02f09	0.46910885
4	0x3ec9d149	0.39417484
5	0x3dfbacd5	0.122888245
6	0x3f0fab90	0.5612116
7	0x3ef889af	0.48542544
8	0x3efb7d39	0.49118975
9	0x3ebf2c54	0.37338507
10	0x3dd44450	0.10364592
11	0x3f1bfdc3	0.60934085
12	0x3d8398f7	0.0642566
13	0x3ef5fad8	0.4804294
14	0x3e751dd2	0.23937157
15	0x3e16b832	0.14718702
16	0x3d12303e	0.03569054
17	0x3b386a0e	0.0028139385
18	0x3ea0045a	0.3125332
19	0x3f060259	0.5234733
20	0x3e0201be	0.12695977
21	0x3decbe1b	0.11559697
22	0x3ecaca34	0.39607394
23	0x3f0bc36d	0.5459507
24	0x3d28960d	0.041158725
25	0x3cd230db	0.025658062
26	0x3d6a6021	0.057220582
27	0x3e6cea31	0.23136212
28	0x3c0d2916	0.008615753
29	0x3e526985	0.20548065
30	0x3eab0895	0.33404985
31	0x3ed73e4c	0.42039716

embedder.mood_embeddings.amazement.LayerNorm.bias f4 [32]
0	0xbcf7567f	-0.030192612
1	0x3d5ebb8c	0.054378077
2	0x3c876dc9	0.016531842
3	0x3bbad90c	0.0057021435
4	0x3cf21877	0.029552681
5	0x3d1ee1fa	0.038789727
6	0x3d8f5fd7	0.07000702
7	0x3d5b4012	0.0535279
8	0x3c9e4b5f	0.01932305
9	0x3c97cf7f	0.018531559
10	0xbd763525	-0.060109276
11	0xbd41b0d2	-0.04728777
12	0xbd257db6	-0.04040309
13	0x3c825075	0.015907506
14	0x3dc6b0b9	0.09701676
15	0x3d9c5606	0.07633595
16	0xbc9a2683	-0.018817192
17	0xbc585e1e	-0.013206033
18	0x3c65861a	0.014009023
19	0x3bd747d2	0.006569841
20	0xbc8603c3	-0.016359216
21	0x3d8916ac	0.066937774
22	0x3d169132	0.036759563
23	0xbccb8f5b	-0.02484863
24	0xbd0384bf	-0.03210902
25	0x3d2b7175	0.041856248
26	0xbb48cda4	-0.003064015
27	0xbbeaa406	-0.0071606664
28	0xbc8a150c	-0.016855739
29	0xbdfda089	-0.12384135
30	0x3de9ab82	0.11409666
31	0xbd30b98c	-0.0431457

embedder.mood_embeddings.solemnity.linear.weight f4 [32, 1]
0	0xbf14633c	-0.5796392
1	0x3d8783ef	0.06616961
2	0xbd8d059e	-0.06885837
3	0x3d91278a	0.070876196
4	0xbbc0cc89	-0.0058837575
5	0xbe0d8a5e	-0.13822314
6	0xbcff82c3	-0.031190282
7	0x3ebcb203	0.36854562
8	0x3d23a0cb	0.039948266
9	0x3d96270f	0.073316686
10	0x3dc023b2	0.09381808
11	0x3d6d70e5	0.057968993
12	0x3cd48b72	0.025945399
13	0xbe5d57f1	-0.21615578
14	0x3ea085f2	0.31352192
15	0xbea6ed54	-0.32602942
16	0x3cd046c8	0.025424376
17	0xba26ef1f	-0.0006368029
18	0x3d37e4fc	0.04489611
19	0x3df671a3	0.12033393
20	0xbdbc2165	-0.09186057
21	0x3d6829b2	0.05668039
22	0x3edb74d9	0.42862585
23	0x3e92aaf4	0.28646052
24	0xbe38816a	-0.18018118
25	0x3ee26315	0.4421622
26	0x3e84f3d4	0.25967276
27	0xbc1dae8c	-0.009624135
28	0x3aab3e6a	0.0013064865
29	0xbed843ba	-0.4223917
30	0xbe18496e	-0.14871761
31	0xbe6838a9	-0.22677864

embedder.mood_embeddings.solemnity.linear.bias f4 [32]
0	0x3ddd30de	0.10800336
1	0x3f05128d	0.5198143
2	0x3dc9ec5f	0.09859537
3	0x3d4d4057	0.050110187
4	0xbe12d643	-0.14339547
5	0x3ea7c6e8	0.3276894
6	0xbecdc525	-0.40189472
7	0x3e2a3c47	0.16624556
8	0x3be7b65a	0.0070712985
9	0xbe117b59	-0.1420721
10	0xbf0e4bc3	-0.55584353
11	0xbf02cf98	-0.5109801
12	0xbd94f4b4	-0.07273236
13	0x3e2d8779	0.1694621
14	0xbda7b52c	-0.08188853
15	0x3ed832b9	0.42226198
16	0xbd2749cf	-0.040841874
17	0x3c3e84fc	0.011628386
18	0xbe6a1e02	-0.2286301
19	0xbec45970	-0.38349485
20	0x3e1d3706	0.15353021
21	0x3dc79fbd	0.097472645
22	0xbeedc381	-0.4643822
23	0xbe18acc7	-0.1490966
24	0x3daf82ce	0.08569871
25	0xbdd87dc8	-0.10570866
26	0xbe712124	-0.23547798
27	0x3cd8e62c	0.026476942
28	0x3b7d5bfb	0.003865956
29	0x3ef60cab	0.4805654
30	0x3e7fff33	0.24999695
31	0xbe733913	-0.23752241

embedder.mood_embeddings.solemnity.LayerNorm.weight f4 [32]
0	0x3f33c2a5	0.7021888
1	0x3f312b83	0.6920702
2	0x3db5f3b1	0.08884371
3	0x3e98419a	0.2973755
4	0x3e869852	0.26288086
5	0x3e854016	0.26025456
6	0x3f1f04b4	0.6211655
7	0x3f304a05	0.68862945
8	0x3e72e44d	0.23719902
9	0x3d6e513d	0.058182944
10	0x3f19776a	0.59947836
11	0x3f17edec	0.59347415
12	0x3c0ab271	0.008465395
13	0x3eb361a8	0.35035443
14	0x3ef47407	0.47744772
15	0x3e9059be	0.28193468
16	0x3d444601	0.047918323
17	0x3b2aa9c8	0.002604114
18	0x3e7f358b	0.24922769
19	0x3eca138c	0.39468038
20	0x3e6353c0	0.22199917
21	0x3eacdd92	0.33762795
22	0x3f08ccdc	0.5343759
23	0x3ef4c2b3	0.47804794
24	0x3ea1fec5	0.31639686
25	0x3f0db03a	0.55347025
26	0x3ed091b9	0.40736178
27	0x3c673c4b	0.014113496
28	0x3c638828	0.013887443
29	0x3eeaef47	0.4588568
30	0x3e97544b	0.29556498
31	0x3f14e5c3	0.5816309

embedder.mood_embeddings.solemnity.LayerNorm.bias f4 [32]
0	0x3d513c3a	0.051082827
1	0x3b1e7521	0.00241787
2	0xbce46fea	-0.027885396
3	0x3cafde7b	0.021468392
4	0x3ad3ba5e	0.0016153564
5	0xbd7b3f9b	-0.061339956
6	0xbc60e9ed	-0.013727647
7	0x3dd9176c	0.106001705
8	0x3d68c41a	0.056827642
9	0x3d82e717	0.06391733
10	0xbcb53917	-0.02212195
11	0x3cc9050f	0.024538545
12	0x3c40bf9b	0.011764432
13	0xbcdc27c9	-0.02687444
14	0xbc122b2d	-0.008921427
15	0xbe0b6cc0	-0.13615704
16	0x3c9a5584	0.018839605
17	0x3b217132	0.002463412
18	0x3d80819c	0.06274721
19	0x3d01a5dd	0.03165232
20	0xbd6d8250	-0.057985604
21	0xbc72884b	-0.014803003
22	0x3d04d8c2	0.03243328
23	0x3d357e7a	0.04431007
24	0xbd5b89c6	-0.053598188
25	0x3d83eec1	0.06442023
26	0x3d3d57b0	0.046226203
27	0xbd3de88b	-0.04636435
28	0x3c8b86ba	0.017032016
29	0xbe00115a	-0.12506619
30	0xbdbae6ee	-0.091260776
31	0xbc913e2a	-0.017729837

embedder.mood_embeddings.tenderness.linear.weight f4 [32, 1]
0	0x3c0dbe92	0.008651393
1	0x3c607c52	0.013701515
2	0x3eb8fbb3	0.3612953
3	0xbccfb74a	-0.025355954
4	0xbd8be26e	-0.068302974
5	0xbde8a515	-0.11359612
6	0xbcc6df39	-0.024276363
7	0x3e259d0a	0.16173187
8	0xbe58d1a1	-0.21173717
9	0xbe466440	-0.1937418
10	0x3ed7c29d	0.42140666
11	0xbdf28392	-0.11841501
12	0xbc5d6ee6	-0.01351521
13	0xbcd8131f	-0.026376305
14	0xbdc81bd4	-0.09770933
15	0x3e5f46c5	0.2180434
16	0xbcd7ba88	-0.026334062
17	0x3c70ce01	0.014697553
18	0x3d4f8c50	0.05067092
19	0xbeabe59a	-0.3357361
20	0xbdb8775c	-0.09007141
21	0xbe23f8a1	-0.16012813
22	0x3abb9332	0.0014310835
23	0x3de871e6	0.113498494
24	0xbd129b47	-0.035792615
25	0xbd9addd2	-0.0756184
26	0x3d25aba6	0.0404469
27	0x3eea50cd	0.4576477
28	0x3dbb127e	0.091343865
29	0x3ebd81cf	0.370131
30	0x3e09dd34	0.13463289
31	0xbd52396d	-0.051324297

embedder.mood_embeddings.tenderness.linear.bias f4 [32]
0	0xbebd0d91	-0.36924413
1	0xbd172027	-0.036895897
2	0x3ec6d724	0.38836014
3	0x3bb18b71	0.005418234
4	0x3d7871c4	0.06065537
5	0x3af6bba4	0.0018824232
6	0x3d06c2b9	0.032900546
7	0x3f2c3447	0.6726727
8	0x3ec447e7	0.38336107
9	0x3e1fdec6	0.15612325
10	0xbe308d33	-0.17241363
11	0xbe4338e8	-0.19064677
12	0xbc16f236	-0.009213021
13	0x3b4c85b8	0.0031207632
14	0xbdf66a81	-0.12032033
15	0xbd2bee17	-0.041975107
16	0x3b2c26b3	0.0026268184
17	0xbd882241	-0.066471584
18	0xbda80dd1	-0.0820576
19	0x3dbfba07	0.09361654
20	0x3dfd3e4a	0.12365396
21	0x3e709488	0.2349416
22	0xbd0673bb	-0.032825213
23	0x3f0a5b8c	0.5404594
24	0x3c9ab376	0.018884402
25	0x3dac4afb	0.08412739
26	0xbd98df51	-0.07464469
27	0xbebe5870	-0.37176847
28	0xbb895083	-0.004190506
29	0xbecf3912	-0.4047323
30	0xbec84fd0	-0.39123392
31	0x3d543e29	0.051817093

embedder.mood_embeddings.tenderness.LayerNorm.weight f4 [32]
0	0x3eff5cfc	0.4987563
1	0x3ddf3e46	0.109005496
2	0x3f14a188	0.5805898
3	0x3d3003a0	0.042972207
4	0x3db042f9	0.08606524
5	0x3e3efa60	0.18650198
6	0x3bfbd049	0.0076847416
7	0x3f467c3a	0.77533305
8	0x3f036a84	0.51334405
9	0x3e8cda42	0.27510267
10	0x3f0a0804	0.5391848
11	0x3f00e2e8	0.5034623
12	0xbc4eb1d4	-0.01261564
13	0x3bfd6a0b	0.0077335886
14	0x3e9fd172	0.31214482
15	0x3e98d8f2	0.29853016
16	0x3c45650b	0.012048016
17	0x3e57ce2b	0.2107474
18	0x3d9381d5	0.07202498
19	0x3ef2e83e	0.47442812
20	0x3e282231	0.16419293
21	0x3e8bab70	0.27279234
22	0x3ca941d3	0.02066127
23	0x3f29646e	0.6616887
24	0x3bc330ee	0.0059567606
25	0x3da7a7d2	0.08186306
26	0x3d6c5e8a	0.057707347
27	0x3f0d07c0	0.5508995
28	0x3e6237c0	0.2209158
29	0x3f166843	0.5875284
30	0x3ee849ec	0.45368898
31	0x3cb92f39	0.022605525

embedder.mood_embeddings.tenderness.LayerNorm.bias f4 [32]
0	0x3daacac7	0.08339458
1	0x3d812baa	0.063071564
2	0x3d0eb800	0.034843445
3	0x3c9276f3	0.017878985
4	0xbd36cec1	-0.04463077
5	0xbce8f51d	-0.028437192
6	0x3c2d08ac	0.01056115
7	0x3dd96b86	0.106162116
8	0xbcca600b	-0.024704
9	0xbd8c313c	-0.06845328
10	0x3bcf57e1	0.0063276147
11	0x3d4a5fbf	0.049407717
12	0x3d463641	0.048391584
13	0x3c69d940	0.014272988
14	0xbd6829df	-0.056680556
15	0x3c9c426e	0.019074645
16	0x3c6850f4	0.014179457
17	0x3cb26cf5	0.02178047
18	0x3d877c55	0.06615511
19	0xbdd704e3	-0.10498979
20	0xbd4f7e39	-0.050657485
21	0xbd5cd63e	-0.053915255
22	0x3cf20c54	0.029546894
23	0x3aca0a0b	0.001541437
24	0x3c920336	0.017823797
25	0xbd6d700c	-0.057968184
26	0x3d31e207	0.043428447
27	0x3cf28449	0.029604094
28	0x3b9f68e6	0.0048648
29	0xbc80be4f	-0.015715746
30	0x3d8826d8	0.06648034
31	0xbbafe57b	-0.0053679324

embedder.mood_embeddings.nostalgia.linear.weight f4 [32, 1]
0	0x3e1f96b4	0.15584832
1	0x3e820dac	0.25401056
2	0xbe0b1a98	-0.13584363
3	0x3ad964af	0.0016585792
4	0x3d28b7b1	0.041190807
5	0x3d8fae84	0.07015708
6	0x3eedaa03	0.4641877
7	0xbec7314b	-0.38904795
8	0x3eab0e3d	0.334093
9	0x3befb7ef	0.0073156278
10	0xbe14cdbc	-0.14531606
11	0x3d12288e	0.035683207
12	0x3e6d49a8	0.23172629
13	0xbe670ef5	-0.225643
14	0x3e0826ce	0.13296053
15	0x3b9c0b8f	0.00476212
16	0xbceda336	-0.02900849
17	0xbd34483d	-0.044014204
18	0x3d8a0ab1	0.067403205
19	0xbe8d78d3	-0.27631244
20	0x3d65a17d	0.05606221
21	0xbc080449	-0.008301803
22	0x3b12ae65	0.002238178
23	0xbdf72be8	-0.12068921
24	0x3d19e3b0	0.037570655
25	0xbe077b1c	-0.13230556
26	0x3b10ca2b	0.0022093158
27	0xbda1f3c6	-0.07907824
28	0xb7cc6f89	-2.4370633e-05
29	0x3e7959b8	0.24350631
30	0xbe2aca90	-0.16678834
31	0x3e964ef6	0.29357117

embedder.mood_embeddings.nostalgia.linear.bias f4 [32]
0	0x3d517e28	0.051145703
1	0xbf030084	-0.5117266
2	0x3e8cc39a	0.27492982
3	0x3ccc9f49	0.024978297
4	0x3e0f22bc	0.13978094
5	0x39c07f1c	0.00036715798
6	0xbea3e083	-0.32007226
7	0x3e8911f0	0.26771498
8	0x3eac9751	0.33709195
9	0xbe3b508f	-0.1829245
10	0xbf0e4e64	-0.55588365
11	0xbead0434	-0.3379227
12	0xbe04ef48	-0.12981904
13	0xbddc20d7	-0.10748451
14	0x3dbb1e1d	0.09136603
15	0xba5cc3bd	-0.0008421501
16	0x3e8742f1	0.2641826
17	0x3e60142d	0.21882696
18	0xbcab6388	-0.020921484
19	0xbe946afb	-0.2898787
20	0xbd05278a	-0.03250841
21	0x3d27c52a	0.040959515
22	0xbc9704b1	-0.018434854
23	0xbca55b18	-0.020185038
24	0xbea3813e	-0.3193454
25	0xbe9c3802	-0.3051148
26	0xbbc906fb	-0.0061348653
27	0xbecc2266	-0.39869994
28	0x3c585ef7	0.013206235
29	0xbef6b7be	-0.4818706
30	0xbe1fb5d5	-0.15596707
31	0xbe513d72	-0.20433596

embedder.mood_embeddings.nostalgia.LayerNorm.weight f4 [32]
0	0x3ede3dfa	0.4340666
1	0x3ef0144e	0.4689049
2	0x3e1faaf4	0.15592557
3	0x3bf86a8b	0.0075810603
4	0x3e51277f	0.20425223
5	0x3de7ccb3	0.1131834
6	0x3f15d204	0.58523583
7	0x3effd396	0.49966115
8	0x3f2e624e	0.6811875
9	0x3e55f9ef	0.20896123
10	0x3f20fc00	0.6288452
11	0x3eaa6f85	0.33288208
12	0x3e850558	0.2598064
13	0x3e93bbb9	0.2885416
14	0x3e446239	0.19178094
15	0x3c855016	0.01627354
16	0x3e8d9698	0.27653956
17	0x3e81e53d	0.25370207
18	0x3e51f517	0.2050365
19	0x3f082a21	0.53189284
20	0x3e5c207d	0.21496768
21	0x3d2e035f	0.042483684
22	0x3b132fce	0.0022458914
23	0x3e443e81	0.19164468
24	0x3dec67dd	0.11543248
25	0x3eee6029	0.4655774
26	0xbbfa0456	-0.0076299114
27	0x3ee8d432	0.45474392
28	0xbc112a8d	-0.008860243
29	0x3ee139ac	0.43989313
30	0x3e989010	0.2979741
31	0x3e3a625e	0.18201587

embedder.mood_embeddings.nostalgia.LayerNorm.bias f4 [32]
0	0x3d49df5f	0.04928529
1	0x3de8d531	0.11368788
2	0xbdbfe0b0	-0.093690276
3	0xbcd5365b	-0.026026895
4	0xbd8603c0	-0.06543684
5	0xbcf48c84	-0.02985216
6	0xbc98fe18	-0.018675849
7	0xbb1b9da6	-0.002374509
8	0x3d0e6642	0.03476549
9	0x3c8e8483	0.01739717
10	0xbdc61167	-0.09671288
11	0x3dd28495	0.10279194
12	0x3d939bd4	0.07207456
13	0xbde05e44	-0.1095548
14	0xbd89b7de	-0.06724523
15	0xbcb4a1ab	-0.022049746
16	0xbde18b00	-0.1101284
17	0xbe01fd4b	-0.1269428
18	0xbd1f5298	-0.038897127
19	0xbcfd9a71	-0.030957432
20	0x3c3146a1	0.010820062
21	0xbcfa73c0	-0.030572772
22	0xbc75605f	-0.01497659
23	0xbd8e2faf	-0.06942689
24	0x3dc75156	0.097323105
25	0x3ba9d1e4	0.0051824916
26	0xbd26aa83	-0.040689956
27	0x3ca537d2	0.020168219
28	0xbc4bfff3	-0.01245116
29	0x3d2d62fb	0.042330723
30	0x3ca508c6	0.020145785
31	0x3dbf6469	0.093453236

embedder.mood_embeddings.calmness.linear.weight f4 [32, 1]
0	0xbf1bc395	-0.6084531
1	0x3f45a183	0.7719957
2	0xbc97e51d	-0.018541867
3	0xbe18c7fe	-0.14920041
4	0xbc0ce2c5	-0.008598988
5	0xbd6a820f	-0.05725294
6	0xbd59c0dd	-0.053162444
7	0x3d2fbb2d	0.042903114
8	0x3e53ec56	0.20695624
9	0xbe8ecf64	-0.278926
10	0x3ebb5992	0.36591774
11	0xbec750dd	-0.3892888
12	0x3f026727	0.5093865
13	0xbd11da1d	-0.0356084
14	0xbbf201f3	-0.0073854863
15	0xbcb9f77c	-0.022701018
16	0x3e99b1c4	0.30018437
17	0xbeec3367	-0.46132967
18	0xbe4a25db	-0.19741003
19	0xbeb86f5a	-0.36022455
20	0x3e78dd8d	0.24303265
21	0xbd02275f	-0.03177583
22	0xbef9f0d4	-0.4881655
23	0xbef3d77f	-0.47625348
24	0xbe6fefd4	-0.23431331
25	0xbb1b63f3	-0.0023710697
26	0xbe4916bb	-0.19637577
27	0x3db6b890	0.08921921
28	0xbc8466e4	-0.016162343
29	0x3c293ca2	0.010329397
30	0x3e92b586	0.28654116
31	0x3f2bb644	0.6707499

embedder.mood_embeddings.calmness.linear.bias f4 [32]
0	0xbb677267	-0.0035315992
1	0xbddc9218	-0.10770053
2	0xbc512de3	-0.012767288
3	0x3e16f847	0.14743148
4	0xbd195c77	-0.037441697
5	0x3d255e16	0.04037293
6	0xbe96b35b	-0.29433712
7	0x3e905aaa	0.2819417
8	0xbe9c40c8	-0.30518174
9	0x3e37ae68	0.17937624
10	0xbc5f9583	-0.013646486
11	0x3e8cb567	0.2748215
12	0xbe1820d6	-0.14856276
13	0xbdb1d865	-0.08683852
14	0x3db86593	0.09003749
15	0xbbe4bfe2	-0.006980882
16	0xbeaa6098	-0.3327682
17	0x3deec516	0.11658685
18	0x3df45866	0.11930923
19	0x3e95cb17	0.29256508
20	0xbe4c528a	-0.19953361
21	0x3bc30ce6	0.0059524653
22	0x3dbeb093	0.093110226
23	0x3e8a8664	0.27055657
24	0x3e5b6090	0.21423554
25	0xbe72bfc8	-0.23705971
26	0x3dad5871	0.084641345
27	0xbe43e9b2	-0.19132116
28	0xbc8e9a2b	-0.017407497
29	0xbf0cdb8e	-0.55022514
30	0xbeac8634	-0.3369614
31	0xbec45170	-0.38343382

embedder.mood_embeddings.calmness.LayerNorm.weight f4 [32]
0	0x3f4ccce1	0.8000012
1	0x3f6a6345	0.91557723
2	0x3ad0af8d	0.0015921459
3	0x3e8429a6	0.25813025
4	0x3ca6a2df	0.020341335
5	0x3daa38b1	0.08311594
6	0x3f1d8450	0.6153002
7	0x3f255ff2	0.64599526
8	0x3ed8dd52	0.42356354
9	0x3ea27e33	0.31736907
10	0x3f2daec8	0.6784482
11	0x3f01c3d3	0.5068943
12	0x3f3b72d3	0.7322208
13	0x3e97c0e3	0.29639348
14	0x3ef864a9	0.48514298
15	0x3c002c89	0.007823118
16	0x3edcfc4a	0.4316123
17	0x3f16f09f	0.5896091
18	0x3e8eb4d2	0.2787233
19	0x3ee9e33f	0.45681188
20	0x3ed6c944	0.41950428
21	0x3c917657	0.017756624
22	0x3f2ca384	0.67437005
23	0x3f2301f9	0.63674885
24	0x3e3ddb56	0.18540701
25	0x3f0448f0	0.51673794
26	0x3e8aa33c	0.27077663
27	0x3e8cff1a	0.27538377
28	0x3c7cd9cf	0.015432789
29	0x3f31606d	0.6928776
30	0x3ef18c59	0.4717739
31	0x3f3fd93b	0.7494084

embedder.mood_embeddings.calmness.LayerNorm.bias f4 [32]
0	0x3cb07cc7	0.021543873
1	0x3dbbbad9	0.09166498
2	0x3c189fd8	0.0093154535
3	0xbd768180	-0.060182095
4	0x3c4eafe8	0.0126151815
5	0xbd4aa0f4	-0.049469903
6	0x3ca71826	0.020397257
7	0x3d178448	0.036991388
8	0x3e2c51e0	0.16828108
9	0xbded0307	-0.11572843
10	0x3c21b307	0.009869344
11	0xbdf24ad6	-0.1183068
12	0x3d13d6b1	0.036093418
13	0xbc8c06ac	-0.017093025
14	0x3c9b4f55	0.018958727
15	0xbabe6aba	-0.0014527657
16	0x3dcf0a3f	0.10109376
17	0xbd4374bf	-0.04771876
18	0xbdcb2dae	-0.09920822
19	0xbe180798	-0.14846647
20	0x3dda0d17	0.10647028
21	0xbc9f57c0	-0.019451022
22	0xbc563565	-0.013074254
23	0xbcb502ee	-0.022096124
24	0xbdf8aa78	-0.12141889
25	0x3c111b57	0.008856616
26	0xbd8e7cc2	-0.069573894
27	0x3d91fd93	0.071284436
28	0x3cc572d0	0.024102598
29	0xbd374645	-0.04474475
30	0x3cef4674	0.0292084
31	0xbc37ee74	-0.011226285

embedder.mood_embeddings.power.linear.weight f4 [32, 1]
0	0xbc4eeda6	-0.012629902
1	0xbe621e0e	-0.22081777
2	0x3c2f02e2	0.01068184
3	0xbdedf235	-0.11618463
4	0x37ec5ac7	2.8175664e-05
5	0xbd8931fb	-0.06698986
6	0xbe07d463	-0.13264613
7	0x3cb4423f	0.022004245
8	0x3d34bb80	0.044124126
9	0xbd1a6fbf	-0.037704226
10	0xbe07dc4a	-0.13267627
11	0xbd1dfc3f	-0.03857064
12	0xbc43d429	-0.011952438
13	0xbe435ae8	-0.19077647
14	0xbc3560cf	-0.011070444
15	0xbc9236ad	-0.017848337
16	0x3e6b3c0f	0.2297213
17	0x3c90341d	0.017602975
18	0x3e499a0f	0.19687675
19	0xbe285d40	-0.16441822
20	0x3db3f43d	0.08786819
21	0x3bd9ed09	0.0066505712
22	0x39f3d4db	0.00046507161
23	0x3d0fa901	0.035073284
24	0xbde52eb6	-0.1119055
25	0xbe2b144c	-0.16706961
26	0x3d951e0a	0.0728112
27	0x3be2e392	0.006924101
28	0xbbf82ef1	-0.007573955
29	0x3e77d326	0.2420164
30	0xbe635415	-0.22200043
31	0xbe0571d7	-0.13031708

embedder.mood_embeddings.power.linear.bias f4 [32]
0	0x3dca1ae3	0.098684095
1	0xbd99ca45	-0.07509283
2	0xbcce5837	-0.025188548
3	0xbd8230eb	-0.063569866
4	0x3cc92fe1	0.024558963
5	0x3e735cd1	0.23765875
6	0x3e41a194	0.18909293
7	0x3d0cd039	0.034378264
8	0x3ecf87fc	0.40533435
9	0x3e80fc28	0.2519238
10	0xbee6fa26	-0.45112723
11	0x3d9fca6f	0.07802283
12	0xbb5d6734	-0.0033783438
13	0xbe6cd1d2	-0.23126915
14	0x3cc1dd1e	0.023665007
15	0xbe97eb68	-0.29671788
16	0x3ea8a247	0.32936308
17	0xbee23523	-0.44181165
18	0xbd223803	-0.0396042
19	0xbf06b566	-0.5262054
20	0x3d0c860f	0.034307536
21	0x3d5ef69a	0.054434396
22	0x3de9910e	0.1140462
23	0xbdc4b1e1	-0.0960424
24	0x3e13d678	0.14437282
25	0x3ea7e746	0.32793635
26	0x3df4bd50	0.11950171
27	0xbde91d00	-0.113824844
28	0x3c1219aa	0.008917252
29	0xbcfdea41	-0.03099549
30	0xbf150d18	-0.58223104
31	0x3dc070ac	0.093964905

embedder.mood_embeddings.power.LayerNorm.weight f4 [32]
0	0x3eaa625e	0.33278173
1	0x3e654d08	0.22392666
2	0x3d4e5d43	0.05038191
3	0x3dac0e81	0.08401204
4	0x3cbfe2ee	0.023423638
5	0x3e808cf9	0.25107554
6	0x3efdbf8c	0.495602
7	0x3de77a83	0.11302664
8	0x3f2b901a	0.67016757
9	0x3ea3194c	0.31855237
10	0x3f13c846	0.5772747
11	0x3e92286e	0.2854647
12	0x3d38d854	0.04512818
13	0x3e47b7e0	0.19503736
14	0x3bc5a361	0.006031439
15	0x3e94fc68	0.2909882
16	0x3eff81f9	0.4990385
17	0x3f110976	0.5665506
18	0x3e024244	0.12720591
19	0x3f07ead7	0.5309271
20	0x3da484bc	0.080331296
21	0x3dbf3b82	0.09337522
22	0x3e4d4add	0.2004809
23	0x3e577502	0.21040729
24	0x3e36cba0	0.17851114
25	0x3eb73264	0.35780632
26	0x3dd0038f	0.10156929
27	0x3e8cae90	0.2747693
28	0x3cb42d0a	0.021994133
29	0x3e291974	0.16513616
30	0x3f1ddb9c	0.6166322
31	0x3e831ee7	0.25609514

embedder.mood_embeddings.power.LayerNorm.bias f4 [32]
0	0x3cf290cd	0.029610062
1	0x3d08980d	0.033348132
2	0x3c746a5b	0.014917935
3	0x3be95d17	0.007121693
4	0x3c5596b0	0.013036415
5	0xbd1f09e8	-0.038827807
6	0xbd8dd1c8	-0.06924778
7	0x3d6fbb4d	0.058528233
8	0x3d5c4804	0.053779617
9	0xbd20396c	-0.03911726
10	0xbcf3d891	-0.029766353
11	0x3c89c1f4	0.016816117
12	0xbd17428c	-0.0369287
13	0x3d9fc078	0.078003824
14	0x3c9f43b1	0.019441457
15	0x3d3f36f6	0.046683274
16	0x3ca0aca2	0.019613568
17	0xbc1b17a2	-0.009466084
18	0xbcd1dbb7	-0.025617464
19	0x3d071b71	0.032985155
20	0x3c05c39f	0.0081643155
21	0xbb5f53b5	-0.0034076993
22	0x3c31abcd	0.010844183
23	0x3d5145fc	0.051092133
24	0xbd5ec5e7	-0.054387953
25	0xbbd3878a	-0.0064553665
26	0xbd0aff35	-0.03393479
27	0x3cb59180	0.022164106
28	0x3d37211e	0.044709317
29	0xbdb4b2a6	-0.08823137
30	0xbd171a87	-0.036890533
31	0xbd288a4c	-0.041147515

embedder.mood_embeddings.joyful_activation.linear.weight f4 [32, 1]
0	0x3eacb180	0.33729172
1	0xbd3ecad3	-0.046580147
2	0xbcc3f747	-0.023921622
3	0x3de9da10	0.11418545
4	0xbdd23f08	-0.102659285
5	0x3eb542a6	0.3540241
6	0x3dea948f	0.114541166
7	0xbd8b13d7	-0.067908935
8	0x3dae2383	0.08502867
9	0x3d0a8d63	0.033826243
10	0xbea03398	-0.31289363
11	0x3e362e67	0.17791139
12	0xbc101279	-0.008793467
13	0x3ea2cd80	0.3179741
14	0x3cf80b23	0.030278748
15	0xbd95fe7b	-0.07323929
16	0xbdb4c629	-0.088268586
17	0x3e450fe9	0.1924435
18	0xbdc15dea	-0.09441741
19	0x3d9a30af	0.07528817
20	0xbe2d4b78	-0.1692332
21	0xbcd72225	-0.026261399
22	0x3c307948	0.010771103
23	0xbd606fd9	-0.054794166
24	0xbe979d2f	-0.2961211
25	0xbd156c92	-0.036480494
26	0xbeaf3bd6	-0.3422534
27	0xbdc3660a	-0.09540947
28	0xbe27dc6f	-0.16392682
29	0x3ed4d7e3	0.41570958
30	0xbe9775e7	-0.2958214
31	0xbc67f34f	-0.01415713

embedder.mood_embeddings.joyful_activation.linear.bias f4 [32]
0	0xbd5158c2	-0.051110037
1	0xbecae267	-0.39625856
2	0x3ce19ed1	0.02754155
3	0xbe83810b	-0.2568439
4	0x3e1cfeb0	0.1533153
5	0xbdfa0cca	-0.122094706
6	0xbeb0bd04	-0.34519207
7	0x3f0fef2d	0.5622433
8	0x3e858791	0.2607999
9	0xbe07cc25	-0.13261469
10	0x3ed8354a	0.42228156
11	0x3e3bd26a	0.18341985
12	0x3bb32a60	0.005467698
13	0xbe0f2f6b	-0.13982932
14	0xbd7e3c72	-0.062069364
15	0x3da231de	0.07919668
16	0xbec020cc	-0.37525022
17	0xbe1315ef	-0.14363836
18	0x3dae1302	0.08499719
19	0x3e0c5b80	0.1370678
20	0xbec63636	-0.38713235
21	0x3ca55b0b	0.020185014
22	0xbe0a5f9f	-0.13513039
23	0x3d5ea097	0.05435237
24	0xbdbc9f10	-0.09210026
25	0xbd3bf097	-0.04588374
26	0x3eb39aed	0.35079136
27	0x3dbfcda1	0.093653925
28	0xbe6b9b75	-0.23008521
29	0xbee986bb	-0.45610604
30	0x3e479828	0.19491637
31	0x3c67f49b	0.01415744

embedder.mood_embeddings.joyful_activation.LayerNorm.weight f4 [32]
0	0x3ee71ec2	0.45140654
1	0x3f07ba8b	0.53019017
2	0x3c60d4f8	0.013722651
3	0x3e84237e	0.25808328
4	0x3e545545	0.20735653
5	0x3edf441a	0.43606645
6	0x3efb43d7	0.49075195
7	0x3f2754c5	0.65363723
8	0x3f19466a	0.5987307
9	0x3e689a75	0.2271517
10	0x3eed9bec	0.4640802
11	0x3ef3b9bb	0.4760264
12	0x3c2eb2ea	0.010662774
13	0x3ebce693	0.36894664
14	0x3d5f4746	0.05451133
15	0x3ddd4b17	0.10805338
16	0x3ef2a367	0.4739029
17	0x3e92b899	0.28656462
18	0x3e0cb882	0.13742259
19	0x3ec0282e	0.37530655
20	0x3f0698b2	0.52576745
21	0x3d860f9d	0.06545947
22	0x3e876da0	0.26450825
23	0x3e518720	0.20461702
24	0x3ed8085b	0.42193875
25	0x3e088998	0.13333738
26	0x3e8fce5d	0.2808713
27	0x3e585b79	0.21128644
28	0x3ecd0ee1	0.40050414
29	0x3f084c06	0.53241
30	0x3ed6167f	0.41814038
31	0x3c905d7e	0.017622706

embedder.mood_embeddings.joyful_activation.LayerNorm.bias f4 [32]
0	0x3d6e2268	0.05813828
1	0x3d842659	0.06452627
2	0x3c851366	0.016244601
3	0x3d0981aa	0.033570923
4	0xbd1edcb6	-0.038784705
5	0x3c5690c6	0.01309604
6	0x3d6edef2	0.058318086
7	0x3d9c0c7a	0.07619567
8	0x3d0f85e1	0.035039786
9	0x3ccc1af7	0.024915202
10	0xbdb5f371	-0.088843234
11	0x3bc02af0	0.0058644935
12	0xbc6a9c4a	-0.014319489
13	0x3da0c922	0.07850863
14	0xbca97474	-0.020685412
15	0xbc99cb6c	-0.018773757
16	0x3c48a344	0.012245957
17	0x3afbf8e5	0.0019223957
18	0xbd27b1c3	-0.04094101
19	0xbdf08eac	-0.117459625
20	0x3cd017f9	0.025402056
21	0x3c25fab7	0.010130576
22	0x3d1ac3a5	0.037784237
23	0xbbc18c91	-0.0059066494
24	0x3a55d6d5	0.00081573176
25	0xbd3b4e34	-0.045728877
26	0xbda4ce38	-0.080471456
27	0xbd4ed9ba	-0.05050061
28	0xbcb4d9e4	-0.022076555
29	0xbc7fd542	-0.0156148095
30	0xbd030954	-0.031991318
31	0xbbee004b	-0.0072632185

embedder.mood_embeddings.tension.linear.weight f4 [32, 1]
0	0x3e1a1428	0.15046751
1	0xbd2320d5	-0.039826233
2	0x3e158a98	0.1460365
3	0xbb784b92	-0.003788684
4	0x3f3f0bcc	0.74627376
5	0x3e79b629	0.24385895
6	0xbec853e1	-0.39126495
7	0xbdaa1b92	-0.0830604
8	0x3cb86cca	0.022512812
9	0xbe8e99c9	-0.27851704
10	0x3f118449	0.56842476
11	0x3e8f10c2	0.27942473
12	0x3f277b75	0.65422755
13	0x3cc46638	0.023974523
14	0xbf2a6258	-0.6655631
15	0x3e0fa135	0.1402634
16	0x3d0de251	0.03463966
17	0x3d176a8b	0.03696684
18	0xbeeb6ba8	-0.45980573
19	0x3ef3e443	0.47635087
20	0xbef2ab8b	-0.47396502
21	0x3f0ddfa7	0.5541939
22	0x3e30d414	0.17268401
23	0xbf44e61b	-0.76913613
24	0x3df794bb	0.12088915
25	0xbca04993	-0.019566333
26	0xbf241def	-0.64108175
27	0xbda7c24f	-0.08191358
28	0xbef7dca2	-0.48410517
29	0xbadaaca7	-0.0016683534
30	0x3d57263f	0.05252671
31	0x3f3bf99d	0.73427755

embedder.mood_embeddings.tension.linear.bias f4 [32]
0	0xbd895af1	-0.06706799
1	0x3dc8706d	0.097870685
2	0xbd69418a	-0.05694727
3	0x3b059f34	0.0020389082
4	0xbe88d01f	-0.26721284
5	0xbddcff6e	-0.10790907
6	0xbdbb196e	-0.0913571
7	0xbe830a9e	-0.25594038
8	0x3c8a6b76	0.016896944
9	0x3e1c5a3f	0.15268801
10	0xbe147cfd	-0.14500804
11	0x3ea8d19d	0.32972422
12	0xbe197bf3	-0.14988689
13	0x3b65291d	0.0034967132
14	0x3e3bc13a	0.18335429
15	0xbe38b223	-0.18036704
16	0xb89fab27	-7.6135904e-05
17	0xbad8e10f	-0.0016546565
18	0x3e64530d	0.22297306
19	0xbdcd43c5	-0.10022692
20	0x3e9775d7	0.29582092
21	0xbe329b25	-0.17441995
22	0xbd6f9d5b	-0.058499675
23	0x3e70bcd5	0.23509534
24	0xbd2142c2	-0.039370306
25	0x3c124af9	0.008929008
26	0x3eaf35e9	0.34220818
27	0x3e5bbe59	0.2145933
28	0x3eaf12a3	0.34193906
29	0x3b4a21ec	0.0030842973
30	0xbc34540e	-0.011006368
31	0xbedadcc8	-0.42746568

embedder.mood_embeddings.tension.LayerNorm.weight f4 [32]
0	0x3ef06abc	0.46956432
1	0x3f0e7589	0.55648094
2	0x3ed2c631	0.41166833
3	0x3de5b654	0.11216417
4	0x3f7b50f4	0.981704
5	0x3f103417	0.5632948
6	0x3f3fc422	0.7490865
7	0x3ee4034f	0.44533774
8	0x3e9ee133	0.31031188
9	0x3f243ed8	0.6415839
10	0x3f4dbc5d	0.80365545
11	0x3efa81a4	0.48927033
12	0x3f5d6837	0.86487144
13	0x3d35f782	0.044425495
14	0x3f5c89f3	0.86147994
15	0x3efda252	0.49537903
16	0x3a0ef9d8	0.00054541
17	0x3b90bee9	0.0044172895
18	0x3f519a8d	0.8187645
19	0x3f37e64d	0.71835786
20	0x3f5bc778	0.8585124
21	0x3f58fe50	0.8476305
22	0x3ecb39cf	0.39692542
23	0x3f761fed	0.96142465
24	0x3e9a1e19	0.30101088
25	0x3e4a2b83	0.19743161
26	0x3f71a0a1	0.94385725
27	0x3f1a3c82	0.6024858
28	0x3f575acc	0.8412292
29	0x3df2f35d	0.11862824
30	0x3e135dbb	0.14391224
31	0x3f7390f6	0.9514307

embedder.mood_embeddings.tension.LayerNorm.bias f4 [32]
0	0x3d9c9e5f	0.076473944
1	0x3cc3b032	0.023887727
2	0xbc9c017a	-0.019043673
3	0xbb1b58a3	-0.0023703955
4	0xbc3b6eb5	-0.011439969
5	0xbc154b86	-0.0091122445
6	0xbd7c7cb7	-0.061642375
7	0x3e18e7b4	0.14932138
8	0x3d4bbf56	0.04974302
9	0x3d177996	0.036981188
10	0xbd1b17ff	-0.03786468
11	0xbdb96c5b	-0.0905387
12	0xbc9cdc11	-0.019147905
13	0x3c433186	0.011913663
14	0x3d72986e	0.0592274
15	0x3ca715d8	0.020396158
16	0xbc66d8c3	-0.014089766
17	0x3c1345df	0.008988827
18	0x3d1b642b	0.037937324
19	0xbd1e909f	-0.03871214
20	0x3d854aa3	0.065083764
21	0x3ac94a5b	0.0015357243
22	0xbc7aa4f3	-0.015298116
23	0x3d0b3c71	0.03399319
24	0xbbb2702d	-0.0054455013
25	0x3ccf20f0	0.02528426
26	0x3c86491a	0.01639228
27	0x3cd77ca8	0.026304558
28	0x3d2b786f	0.0418629
29	0xbd40e165	-0.047089953
30	0xbd0cc1f5	-0.03436466
31	0xbcbdc30c	-0.023164295

embedder.mood_embeddings.sadness.linear.weight f4 [32, 1]
0	0xbebbc4fd	-0.36673728
1	0x3b2f0d12	0.0026710671
2	0x3ef18e14	0.4717871
3	0xbada48b8	-0.0016653752
4	0x3ea9d1bb	0.33167824
5	0x3c5e275c	0.013559189
6	0xbe9963f9	-0.29959086
7	0xbeab1152	-0.33411652
8	0xbe46aa04	-0.19400793
9	0x3b977d44	0.004623087
10	0x3da8611c	0.08221647
11	0xbd234e19	-0.0398694
12	0x3c3c6d0e	0.01150061
13	0xbc9cd827	-0.019146038
14	0x3d424d8b	0.047437232
15	0xbd9c7e0b	-0.07641228
16	0xbde4be23	-0.11169078
17	0x3cc6f091	0.024284633
18	0x3c7a33f1	0.015271173
19	0xbdfcba4e	-0.12340222
20	0xbe1e3ffc	-0.15454096
21	0xbec8a914	-0.39191496
22	0xbd8b519a	-0.06802674
23	0xbd355e03	-0.04427911
24	0x3e381067	0.17975007
25	0x3dacf654	0.08445421
26	0xbb6dcc33	-0.0036285042
27	0xbd70633a	-0.05868838
28	0xbd5ef403	-0.054431926
29	0x3ed8af26	0.42321128
30	0x3e12a078	0.14319026
31	0xbc1a0fc2	-0.009403171

embedder.mood_embeddings.sadness.linear.bias f4 [32]
0	0x3f25426a	0.64554465
1	0x3ebe0ba7	0.37118265
2	0xbea5abf6	-0.32357758
3	0x3d032ebd	0.032026995
4	0xbefd6e29	-0.49498108
5	0x3de14623	0.10999706
6	0x3dc873ed	0.09787736
7	0x3d0f4246	0.034975313
8	0xbee5139a	-0.44741517
9	0x3e20f1c1	0.15717222
10	0x3dd341fe	0.103153214
11	0xbd394e4b	-0.04524068
12	0x3d1da34c	0.03848581
13	0xbdffe5b6	-0.12494986
14	0x3d8d4c61	0.06899334
15	0xbd5829a1	-0.052774075
16	0xbb82882f	-0.0039835195
17	0xbddb4e58	-0.10708302
18	0xbcb92146	-0.022598874
19	0xbd8f41df	-0.06994986
20	0x3eeaea95	0.45882097
21	0x3ecdecc2	0.40219694
22	0xbe747f69	-0.23876728
23	0x3ebeaa11	0.37239125
24	0x3d8ab31d	0.067724444
25	0x3b2ef4d0	0.0026696213
26	0xbe720c07	-0.236374
27	0x3e898963	0.2686263
28	0xbe7c3177	-0.24628244
29	0xbe60ee03	-0.21965794
30	0xbee5f371	-0.44912294
31	0xbe307925	-0.17233713

embedder.mood_embeddings.sadness.LayerNorm.weight f4 [32]
0	0x3f2dd853	0.6790821
1	0x3ef174d7	0.47159454
2	0x3f05b667	0.5223145
3	0x3c561e14	0.013068695
4	0x3f0da377	0.5532755
5	0x3dcbde96	0.09954564
6	0x3ee7d285	0.452778
7	0x3eb73fe6	0.35790938
8	0x3ed2c2aa	0.41164142
9	0x3dddf9c8	0.108386576
10	0x3e5e5ba7	0.2171465
11	0x3d7fff3b	0.062499266
12	0x3b8c8e6c	0.004289439
13	0x3d643e02	0.055723198
14	0x3dc1b636	0.09458582
15	0x3d856fe5	0.06515483
16	0x3d8a0fe3	0.067413114
17	0x3e0f3d79	0.13988294
18	0x3cdbf8d0	0.026852041
19	0x3e19a747	0.15005217
20	0x3f03cc28	0.5148339
21	0x3ef10858	0.47076678
22	0x3e05392c	0.1301009
23	0x3ee152d3	0.44008502
24	0x3dfe6065	0.124207295
25	0x3d8c4be2	0.06850411
26	0x3e8567cc	0.26055753
27	0x3ed4c792	0.4155851
28	0x3def12dd	0.1167352
29	0x3f040827	0.5157494
30	0x3f0f6e85	0.56028014
31	0x3e44c0ec	0.19214219

embedder.mood_embeddings.sadness.LayerNorm.bias f4 [32]
0	0x3db75a7b	0.08952805
1	0xbd9d505e	-0.076813444
2	0xbcc784a1	-0.024355235
3	0x3c834137	0.016022308
4	0xbbd88b48	-0.0066084005
5	0xbc6d75e6	-0.014493441
6	0xbdb4a158	-0.088198364
7	0x3db0aa78	0.08626264
8	0x3e251a8f	0.16123413
9	0xbccd0642	-0.025027398
10	0xbd23ca48	-0.039987832
11	0xbbd2382a	-0.0064153867
12	0x3c8508cf	0.016239552
13	0x3d6c9986	0.0577636
14	0x3c5299cc	0.012854051
15	0xbbdb7988	-0.0066978373
16	0xbce9aba7	-0.028524233
17	0x3c94807d	0.018127674
18	0x3c9878f2	0.018612359
19	0xbc44c3ca	-0.01200957
20	0x3ca50efc	0.020148747
21	0xbbc7d62d	-0.00609853
22	0x3d85997b	0.06523415
23	0xbdb0b85c	-0.08628914
24	0xbc2a7f0c	-0.010406267
25	0x3cd8ef98	0.026481435
26	0x3c56a687	0.013101227
27	0xbd1a2ed2	-0.037642308
28	0x3d5dae2b	0.054121178
29	0xbd99240c	-0.074775785
30	0xbcd2ec47	-0.025747431
31	0x3d873321	0.06601549

embedder.Genre_embeddings.genre1.linear.weight f4 [32, 1]
0	0x3efd1558	0.49430346
1	0xbf0adebe	-0.5424613
2	0x3d91e2ac	0.07123312
3	0x3e95ce23	0.29258832
4	0x3ec23217	0.3792884
5	0x3ea70461	0.32620528
6	0x3f30f37a	0.69121516
7	0x3d8a94c7	0.06766658
8	0x3ef659df	0.4811544
9	0xbeac1e51	-0.3361688
10	0x3e946880	0.28985977
11	0xbef5ec45	-0.48031822
12	0xbe196c9c	-0.14982837
13	0xbc75120e	-0.014957918
14	0x3e3ead87	0.18620883
15	0x3ef18443	0.4717122
16	0x3cacc9db	0.021092346
17	0x3d6c3b81	0.057673935
18	0x3e6cda10	0.23130059
19	0x3dad6df9	0.08468241
20	0xbdc74c67	-0.097313695
21	0x3d05a647	0.032629278
22	0x3eee254e	0.46512836
23	0xbf1c3b76	-0.6102823
24	0xbcbff97c	-0.023434393
25	0x3d443328	0.04790035
26	0xbeb102f9	-0.3457258
27	0x3f0dbeab	0.5536906
28	0x3ea7e7f7	0.32794163
29	0x3db783ab	0.089606605
30	0xbeffd0b4	-0.49963915
31	0xbe7690a6	-0.24078616

embedder.Genre_embeddings.genre1.linear.bias f4 [32]
0	0x3d6a830a	0.057253875
1	0xbe8b6943	-0.27228746
2	0xbda52857	-0.08064335
3	0x3f12adb1	0.5729628
4	0x3e378e57	0.17925392
5	0x3d33dbf6	0.043910943
6	0x3f307cdd	0.68940526
7	0x3e1e5945	0.15463741
8	0x3ec7ea6d	0.3904604
9	0x3cbe9a68	0.023266986
10	0xbf2a1cd5	-0.66450244
11	0xbdb345c6	-0.087535426
12	0xbc90d171	-0.017677994
13	0xbeb8696f	-0.3601794
14	0x3e3bc67e	0.18337438
15	0x3eb934c4	0.3617307
16	0x3e603028	0.2189337
17	0xbdb6e3e0	-0.089301825
18	0xbdb39198	-0.08768004
19	0x3eb71388	0.3575709
20	0x3f1c331f	0.61015505
21	0xbde284ba	-0.11060472
22	0x3ede3b08	0.43404412
23	0x3b69b36d	0.0035659925
24	0xbebed7a0	-0.37273884
25	0xbd9cd9db	-0.0765874
26	0xbe57dc12	-0.21080044
27	0x3edc4668	0.43022466
28	0x3a8a5949	0.0010555174
29	0xbec40b5b	-0.38289914
30	0xbb958eed	-0.004564157
31	0xbe6697e2	-0.22518876

embedder.Genre_embeddings.genre1.LayerNorm.weight f4 [32]
0	0x3f2e9c10	0.6820688
1	0x3f369cb0	0.71332836
2	0x3cd68f90	0.026191503
3	0x3eb9b3ac	0.3626989
4	0x3efce4bd	0.49393263
5	0x3f013b1a	0.50480807
6	0x3f5ae272	0.8550178
7	0x3ec19c98	0.37814784
8	0x3f479165	0.7795623
9	0x3f0d8a7b	0.5528943
10	0x3f0dc889	0.5538412
11	0x3f3b023f	0.730503
12	0x3ec724ac	0.38895166
13	0x3e585858	0.2112745
14	0x3d987f48	0.07446152
15	0x3edffe5a	0.43748742
16	0x3ddd9f87	0.10821443
17	0x3d3e07e4	0.046394244
18	0x3e5a9fe6	0.21350059
19	0x3ebb6d4a	0.36606818
20	0x3ee4b3b3	0.4466835
21	0x3e004ff0	0.12530494
22	0x3f13368f	0.57505125
23	0x3f482e1d	0.78195363
24	0x3e454514	0.19264632
25	0x3d2f9c25	0.04287352
26	0x3f151a23	0.58243006
27	0x3f08959a	0.53353274
28	0x3ea0e619	0.3142555
29	0x3eea5f82	0.45775992
30	0x3f3e9b6f	0.7445592
31	0x3f13ea89	0.5777975

embedder.Genre_embeddings.genre1.LayerNorm.bias f4 [32]
0	0xbd616f87	-0.055038
1	0xbd6928fb	-0.056923848
2	0x3c98ce3b	0.018653026
3	0x3d0a5842	0.033775575
4	0x3d54a46d	0.05191462
5	0xbbea4c51	-0.007150211
6	0xbd358335	-0.044314582
7	0xbd0c0990	-0.034188807
8	0x3c075205	0.008259301
9	0xbd17fb83	-0.037105095
10	0x3cd14c13	0.02554897
11	0x3cfd87c1	0.030948522
12	0xbcf97818	-0.030452773
13	0x3b49861b	0.00307501
14	0xbc71dda3	-0.014762315
15	0x3d6aa378	0.057284802
16	0xbd63274c	-0.0554574
17	0xbc5bdb71	-0.013419018
18	0x3dac64e9	0.084176846
19	0xbce8d032	-0.028419588
20	0xbdccb7e6	-0.09996013
21	0x3b988d7d	0.0046555386
22	0x3c1b4c6c	0.00947867
23	0x3b87c714	0.004143605
24	0xbc3dcedd	-0.011584965
25	0xbcbfec91	-0.023428233
26	0xbd603521	-0.054738168
27	0x3db7e66f	0.089794986
28	0x3d4c5063	0.04988135
29	0xbd50c43a	-0.050968386
30	0xbd379174	-0.04481645
31	0xbd315d57	-0.043301906

embedder.Genre_embeddings.genre2.linear.weight f4 [32, 1]
0	0xbde603bf	-0.11231183
1	0x3f032cf0	0.51240444
2	0x3e112785	0.14175232
3	0x3db599d7	0.08867233
4	0x3d9952d7	0.074865036
5	0x3dd8cc33	0.10585823
6	0xbe4cc1bc	-0.19995779
7	0xbf12e747	-0.5738415
8	0xbe28e305	-0.16492851
9	0x3dbf2cd8	0.09334725
10	0xbeb2654f	-0.34842917
11	0x3dc2fa2c	0.09520373
12	0xbd191483	-0.037373077
13	0xbdba92aa	-0.09110005
14	0x3e4f7ea4	0.20263153
15	0x3ed2eebc	0.41197765
16	0x3ee46e11	0.44615224
17	0x3ec09412	0.3761297
18	0x3eaab107	0.33338186
19	0xbf0a500e	-0.54028404
20	0x3eba257b	0.3635672
21	0x3d26a2da	0.04068265
22	0x3e4ecc7a	0.20195189
23	0x3e0793f6	0.13240036
24	0x3e8a9f0e	0.27074474
25	0xbf004e1e	-0.501192
26	0x3dd69d43	0.10479214
27	0x3d168d46	0.036755823
28	0x3dc291e7	0.09500485
29	0xbefab6d1	-0.48967603
30	0x3d73e2c8	0.059542447
31	0x3e796ec3	0.24358658

embedder.Genre_embeddings.genre2.linear.bias f4 [32]
0	0xbeb5308d	-0.35388604
1	0xbeb97205	-0.36219802
2	0x3ea6c848	0.32574677
3	0x3d84974a	0.064741686
4	0x3e12a076	0.14319023
5	0x3cadeaeb	0.021230182
6	0x3dd12ae7	0.10213261
7	0xbdc85a5d	-0.097828604
8	0xbf37a85f	-0.7174129
9	0x3e086601	0.13320161
10	0x3dde3b84	0.108511955
11	0x3f0b63a0	0.5444889
12	0xbd1c4911	-0.03815562
13	0x3d83f63e	0.06443451
14	0xbe6f186f	-0.23349164
15	0x3f02c432	0.5108062
16	0xbe6ebdd8	-0.23314607
17	0x3d1b9928	0.037987858
18	0x3ebcfd42	0.3691197
19	0xbc0a8535	-0.008454611
20	0xbcab578e	-0.020915773
21	0x3ebf7a56	0.37398022
22	0x3e6de3db	0.23231451
23	0x3e6cc68f	0.23122619
24	0x3ea1d5e9	0.31608513
25	0x3ef0de7b	0.4704474
26	0xbe5a2551	-0.21303298
27	0x3eb81f78	0.3596151
28	0x3e403871	0.1877153
29	0xbdcf5759	-0.10124082
30	0xbe0016a1	-0.12508632
31	0x3ea38e4f	0.3194451

embedder.Genre_embeddings.genre2.LayerNorm.weight f4 [32]
0	0x3f3ac7b7	0.7296099
1	0x3f3a82f8	0.7285609
2	0x3ed507c6	0.41607493
3	0xbc674325	-0.01411513
4	0x3c20d4b5	0.009816338
5	0x3e4c91ec	0.1997754
6	0x3f42f8d6	0.76160944
7	0x3f6b6fb1	0.919673
8	0x3f5b868d	0.85752183
9	0x3e19f0df	0.15033291
10	0x3f406d19	0.7516647
11	0x3f2e41b4	0.68069005
12	0x3ecebb5a	0.40377313
13	0x3ed469bc	0.4148692
14	0x3ecfd623	0.4059306
15	0x3f27f0d4	0.6560185
16	0x3f1fa161	0.6235562
17	0x3f2b937f	0.67021936
18	0x3f24e5ed	0.6441334
19	0x3f536b93	0.8258602
20	0x3f24a2f5	0.6431115
21	0x3e8487c4	0.2588483
22	0x3efcc821	0.49371436
23	0x3f09b703	0.5379488
24	0x3f07b6c3	0.5301325
25	0x3f2c4ddf	0.6730632
26	0x3e3ffea5	0.18749483
27	0x3d8e6e05	0.06954578
28	0x3e99ba2a	0.30024844
29	0x3f4d0856	0.80090845
30	0x3ebf01b1	0.37305978
31	0x3f0e20ea	0.5551897

embedder.Genre_embeddings.genre2.LayerNorm.bias f4 [32]
0	0xbd812ab5	-0.06306974
1	0xbd2bcbe4	-0.041942492
2	0x3af4e2cb	0.0018683312
3	0x3cb17c1f	0.02166563
4	0x3c07d733	0.008291054
5	0x3c8eed4d	0.017447138
6	0xbda552c9	-0.08072431
7	0x3af87c56	0.0018957953
8	0xbb06703c	-0.0020513674
9	0xbb0a5a18	-0.002111083
10	0xbb022c3a	-0.0019862787
11	0x3d9d3ffc	0.0767822
12	0x3d4632e2	0.04838837
13	0x3d4669c6	0.048440717
14	0xbd90614d	-0.07049809
15	0xbc92b1d0	-0.017907053
16	0xbb82bf14	-0.0039900634
17	0x3ca6a546	0.02034248
18	0xbcbea300	-0.023271084
19	0xbc62256d	-0.013802868
20	0xbd1c2ab6	-0.03812667
21	0xbc489ce1	-0.012244434
22	0xbc6c0ad4	-0.0144068785
23	0x3a966a62	0.0011475796
24	0xbda044ba	-0.078256086
25	0x3c95be7c	0.018279307
26	0xbb3cf442	-0.0028832112
27	0x3cb592c1	0.022164704
28	0x3c7a749d	0.015286592
29	0xbd47d4fe	-0.04878711
30	0x3c0ffe80	0.008788705
31	0xbd08c117	-0.03338727
