static/model_parameters_label.pt (torch, 127319 bytes, 51 tensors)

bias f4 [10]
00000000: 2563 39ba ae30 4ebc 7724 41bc 2643 42bc
00000010: 1665 3abc fdfe 2bbc cb79 3cbc b177 32bc
00000020: 1c95 3abc 9586 48bc
-0.00070719636 -0.012584848 -0.011788479 -0.01185683 -0.01137664 -0.010497806 -0.011503647 -0.0108927945
-0.0113880895 -0.012239118

mother_tongue_pre_embed.weight f4 [40, 1]
00000000: 060f 8eb3 7f51 1939 2b97 8433 c9ec b8bc
00000010: b8cf c639 3783 6cba ebce 0f37 475c 85b4
00000020: d8ac b134 62eb 93b4 75fb 47bb f5e0 3cb3
00000030: 4a52 0ab3 fb58 08b4 3448 bbb4 2c15 0e3d
00000040: 99cd edb3 ba19 20b3 8bf1 5e3c ef67 6437
00000050: f1c6 ccb2 299a 92b3 2cd6 3c33 9b47 f933
00000060: a6b6 01a7 682e 4dbc 9d0a 9734 abff ff34
00000070: 963c 5237 c04a 3134 4500 0080 e953 0ebc
00000080: bfd3 9cb4 c6fd f9b7 0987 05b8 d369 38bd
00000090: 801a 0ab9 c1ac 0881 9541 cc3c db60 20bc
-6.615123e-08 0.00014621577 6.174226e-08 -0.022573845 0.00037920265 -0.0009022238 8.571641e-06 -2.484032e-07
3.309458e-07 -2.7552147e-07 -0.003051487 -4.397676e-08 -3.220547e-08 -1.2698358e-07 -3.4884e-07 0.03468816
-1.10735705e-07 -3.72763e-08 0.013607393 1.3614058e-05 -2.3839194e-08 -6.8266964e-08 4.396695e-08 1.1607991e-07
-1.800136e-15 -0.012523271 2.8133664e-07 4.7683474e-07 1.2531082e-05 1.6511603e-07 -9.7e-44 -0.008686998
-2.921133e-07 -2.9801286e-05 -3.1835432e-05 -0.045022797 -0.00013170578 -2.51032e-38 0.024933616 -0.009788717

embedder.user_embeddings.age.linear.weight f4 [32, 1]
00000000: 9c08 11af 63b8 219c 49ea 03b9 e000 0000
00000010: 9209 e434 506f 95b6 9a01 0080 0600 0080
00000020: 3b77 a435 6a01 0000 b933 eb38 ce7c 0ba8
00000030: d713 cfb7 25e7 50b3 1037 842c 6020 70b8
00000040: c5a7 e0ae a94f 0828 3d99 b632 2d00 0000
00000050: ac1b b118 7a1a 871b 2801 0080 246f 7d29
00000060: 5201 0000 e3c0 4321 5baa 0080 02ca 20a0
00000070: ae47 efae 5412 ea15 e7fe 4337 c6d5 9e39
-1.3190732e-10 -5.3508746e-22 -0.00012580412 3.14e-43 4.2475273e-07 -4.4535045e-06 -5.75e-43 -8e-45
1.2253653e-06 5.07e-43 0.00011215307 -7.743113e-15 -2.4685562e-05 -4.8639e-08 3.757779e-12 -5.725061e-05
-1.02161425e-10 7.56679e-15 2.1257273e-08 6.3e-44 4.578137e-24 2.2350987e-22 -4.15e-43 5.6273684e-14
4.74e-43 6.6323853e-19 -6.1112e-41 -1.3619366e-19 -1.08811946e-10 9.4540764e-26 1.1682255e-05 0.00030295382

embedder.user_embeddings.age.linear.bias f4 [32]
00000000: e401 0080 a69f e0ac 6100 0080 efc7 c5b1
00000010: 0a36 a139 97ad 2132 c569 03b7 c000 0000
00000020: a8dc 8a39 05dc 33b5 5ee2 4432 8f01 0080
00000030: 0e01 0000 4d1b 0739 8000 0080 4281 82b2
00000040: 5847 e42b 3f00 0080 86f6 1e39 986b c135
00000050: a21b 5939 3b4e 752b 1263 79b9 205e 0c31
00000060: cc30 2f2d 3eef a535 af03 ae2b c466 ee20
00000070: c9d7 8239 d096 5929 bdc2 0b34 5a95 ecb4
-6.78e-43 -6.3841874e-12 -1.36e-43 -5.7561844e-09 0.00030748575 9.410903e-09 -7.832835e-06 2.69e-43
0.00026485813 -6.7002867e-07 1.14601715e-08 -5.59e-43 3.78e-43 0.00012884774 -1.8e-43 -1.5192771e-08
1.6220176e-12 -8.8e-44 0.00015159891 1.4410934e-06 0.00020705027 8.715005e-13 -0.00023783397 2.0426185e-09
9.958433e-12 1.2363087e-06 1.2364466e-12 4.0386773e-19 0.00024956305 4.8314488e-14 1.3016229e-07 -4.4067093e-07

embedder.user_embeddings.age.LayerNorm.weight f4 [32]
00000000: ebc7 ba39 8f64 bb39 50de b539 f2ee ba39
00000010: 39d5 b939 b2db ba39 ecf5 ba39 aac4 bb39
00000020: ab8e b539 f6da ba39 b63e b939 abe6 ba39
00000030: b715 bb39 5918 bb39 299c bc39 d6ec b039
00000040: d880 bb39 8580 bb39 bd16 b439 35f0 ba39
00000050: 6c8e ba39 c6a2 bb39 070c bb39 740f bb39
00000060: a6d4 ba39 929a ba39 8fd8 ba39 9d2c bb39
00000070: 1995 bc39 a3c9 ba39 d8cf ba39 283d bc39
0.00035625635 0.0003574234 0.00034688646 0.00035654713 0.00035444813 0.0003564037 0.0003565991 0.00035813946
0.00034629306 0.00035639823 0.00035332673 0.00035648546 0.00035683598 0.0003568556 0.00035974503 0.00033745792
0.00035763416 0.00035763174 0.00034349217 0.00035655653 0.00035582797 0.00035788695 0.0003567638 0.00035678933
0.0003563512 0.00035591848 0.00035638033 0.0003570066 0.0003596924 0.00035626916 0.0003563154 0.0003590372

embedder.user_embeddings.age.LayerNorm.bias f4 [32]
00000000: 6201 0080 1001 0080 f700 0080 7002 0000
00000010: 6d02 0080 bf03 0000 0d01 0080 0501 0080
00000020: 9c00 0000 2402 0000 7502 0000 6f05 0080
00000030: 3403 0000 a504 0080 6900 0000 1401 0080
00000040: b902 0080 c701 0080 1002 0000 2802 0000
00000050: 5601 0000 8402 0000 2703 0000 cf01 0000
00000060: 6d01 0080 e901 0000 8000 0080 0700 0000
00000070: 3e01 0080 7600 0000 9401 0000 0c02 0080
-4.96e-43 -3.81e-43 -3.46e-43 8.74e-43 -8.7e-43 1.344e-42 -3.77e-43 -3.66e-43
2.19e-43 7.68e-43 8.81e-43 -1.949e-42 1.149e-42 -1.666e-42 1.47e-43 -3.87e-43
-9.77e-43 -6.38e-43 7.4e-43 7.74e-43 4.79e-43 9.02e-43 1.131e-42 6.49e-43
-5.11e-43 6.85e-43 -1.8e-43 1e-44 -4.46e-43 1.65e-43 5.66e-43 -7.34e-43

embedder.user_embeddings.gender.linear.weight f4 [32, 1]
00000000: ab01 0080 4d5d 0fb6 4201 0080 3c91 8790
00000010: f55e 7f37 1e01 0080 2d33 07a8 6b1a 46b9
00000020: 3b00 0080 60d7 19b9 76d6 430d bafb 4e2d
00000030: 4612 6eb9 d308 0822 86b0 0d39 856a 11b9
00000040: 9c9f 862d 105f 8bac 7ed0 f636 a8c2 61b6
00000050: db55 9438 cd5d 07b5 5779 631f 4ff4 8738
00000060: 1cb5 bcb2 df00 0080 f6f4 9fb0 2d8e b036
00000070: 7163 0500 7601 0080 7a01 0000 aa0c 8938
-5.98e-43 -2.1362969e-06 -4.51e-43 -5.347188e-29 1.5221293e-05 -4.01e-43 -7.505102e-15 -0.00018892593
-8.3e-44 -0.0001467145 6.034716e-31 1.1765639e-11 -0.00022704256 1.8436108e-18 0.00013512568 -0.00013867959
1.5304917e-11 -3.9611717e-12 7.355643e-06 -3.3640918e-06 7.073182e-05 -5.0427917e-07 4.816949e-20 6.482808e-05
-2.196844e-08 -3.12e-43 -1.1638395e-09 5.26176e-06 4.9485e-40 -5.24e-43 5.3e-43 6.535028e-05

embedder.user_embeddings.gender.linear.bias f4 [32]
00000000: 5648 84ae d9ca 6d38 8160 8db6 3835 38ac
00000010: 9200 0000 8c00 0000 5a10 8e37 2667 6c37
00000020: fb41 d4aa cd1d 6e99 5527 0080 5da3 ec90
00000030: 9001 0080 01f9 3c1f c420 14ae 3901 0000
00000040: b63e 5937 8f01 0080 3602 a339 1a00 0080
00000050: 98f3 7535 0500 0000 7801 0000 4ed3 b70d
00000060: 7f01 0000 ec00 0000 1e90 1c32 0400 0000
00000070: bb00 0080 2a64 c336 7d00 0080 244c dbae
-6.0155145e-11 5.669412e-05 -4.213362e-06 -2.6177515e-12 2.05e-43 1.96e-43 1.6935333e-05 1.4090712e-05
-3.7704548e-13 -1.231033e-23 -1.411e-41 -9.333729e-29 -5.6e-43 4.001652e-20 -3.3680406e-11 4.39e-43
1.2948809e-05 -5.59e-43 0.0003109143 -3.6e-44 9.162409e-07 7e-45 5.27e-43 1.13291155e-30
5.37e-43 3.31e-43 9.113164e-09 6e-45 -2.62e-43 5.8231135e-06 -1.75e-43 -9.972492e-11

embedder.user_embeddings.gender.LayerNorm.weight f4 [32]
00000000: 09d2 ba39 2996 ba39 9ec7 b639 ff59 ba39
00000010: 24bb ba39 65f4 ba39 5408 bb39 2210 b839
00000020: 9c8d be39 0cd7 b939 5f6a bb39 e3f4 ba39
00000030: ffd5 ba39 9cf1 ba39 30fb b939 ced7 b639
00000040: 57cb b939 bd8b ba39 e3ff ae39 00e7 ba39
00000050: edaa b939 037d ba39 8569 ba39 caef ba39
00000060: 2853 ba39 ff11 bb39 51fc ba39 3edf ba39
00000070: d82b bb39 fc82 ba39 33eb ba39 7a8f ba39
0.00035633173 0.00035588563 0.00034862472 0.00035543737 0.00035616115 0.00035658773 0.00035673624 0.00035107235
0.0003634513 0.00035446172 0.00035746672 0.0003565914 0.00035636124 0.00035656698 0.000354731 0.00034874532
0.0003543745 0.00035580798 0.00033378517 0.00035648793 0.000354133 0.00035569826 0.00035555303 0.0003565534
0.0003553864 0.00035680828 0.00035664675 0.00035643013 0.00035700086 0.00035574276 0.00035651922 0.00035583583

embedder.user_embeddings.gender.LayerNorm.bias f4 [32]
00000000: 5002 0000 9b02 0080 fd01 0080 b401 0000
00000010: 7a02 0080 1304 0080 ee01 0000 dc01 0080
00000020: 4901 0000 8c02 0080 8e01 0080 5d04 0080
00000030: a000 0080 d403 0000 2102 0000 3c01 0080
00000040: 1d01 0000 e502 0000 5900 0000 3d01 0080
00000050: 9a02 0080 dc02 0000 e801 0000 0001 0000
00000060: e900 0000 4502 0080 0800 0080 a301 0000
00000070: 4501 0080 4e02 0080 4900 0080 d201 0080
8.3e-43 -9.35e-43 -7.13e-43 6.11e-43 -8.88e-43 -1.462e-42 6.92e-43 -6.67e-43
4.61e-43 -9.14e-43 -5.58e-43 -1.565e-42 -2.24e-43 1.373e-42 7.64e-43 -4.43e-43
4e-43 1.038e-42 1.25e-43 -4.44e-43 -9.33e-43 1.026e-42 6.84e-43 3.59e-43
3.27e-43 -8.14e-43 -1.1e-44 5.87e-43 -4.55e-43 -8.27e-43 -1.02e-43 -6.53e-43

embedder.user_embeddings.gender.LayerNorm.bias f4 [32, 1]
00000000: 06c1 31aa 5701 0080 3a90 990c 754d a7b8
00000010: 7f01 0080 4d1b 5d29 9275 b1a4 0300 0000
00000020: 7a7e 6b39 7df0 0db4 82b2 7333 2d01 0000
00000030: 811b 18b7 c801 0080 09d8 0e1b e0de e935
00000040: fa9f da38 4c00 0000 a201 0000 0f01 0000
00000050: 6a4d cb36 71ac a590 ac48 db33 a6bc d8b1
00000060: e993 93b9 d8c5 b2b6 84d2 479c aa15 3039
00000070: e63a b7b8 ec00 0080 df9b 2839 5394 abb3
-1.5787726e-13 -4.8e-43 2.3660186e-31 -7.977608e-05 -5.37e-43 4.9095537e-14 -7.6960686e-17 4e-45
0.00022458463 -1.3219137e-07 5.67402e-08 4.22e-43 -9.06631e-06 -6.39e-43 1.181577e-22 1.7424718e-06
0.00010424848 1.06e-43 5.86e-43 3.8e-43 6.0588836e-06 -6.534671e-29 1.0211201e-07 -6.3078742e-09
-0.00028148227 -5.3278454e-06 -6.611566e-22 0.00016792738 -8.737091e-05 -3.31e-43 0.00016079795 -7.989788e-08

embedder.user_embeddings.gender.LayerNorm.bias f4 [32]
00000000: 738d 102c 5906 49b5 5943 05a3 0f01 0000
00000010: 44e6 4e10 1000 0080 f489 8736 ffda ff37
00000020: 8200 0000 380d 17a3 9f00 0080 2ff5 dfb5
00000030: 696e 3131 c300 0000 2a9f cab8 8f25 fa0d
00000040: 3678 e538 1a01 0000 77df 74ab 1e48 29b7
00000050: 8f00 0000 2e20 2b35 03d6 b335 5d84 1ca7
00000060: c8cd 049f c45b 58ab a8f7 0839 6d61 1e31
00000070: 9d1b c536 edca 0096 8ec7 f034 918d 3db7
2.054215e-12 -7.488757e-07 -7.224206e-18 3.8e-43 4.0803727e-29 -2.2e-44 4.0393734e-06 3.0500347e-05
1.82e-43 -8.1885256e-18 -2.23e-43 -1.6686153e-06 2.581965e-09 2.73e-43 -9.661757e-05 1.5416481e-30
0.00010941962 3.95e-43 -8.6996334e-13 -1.0089976e-05 2e-43 6.374929e-07 1.3398825e-06 -2.1721103e-15
-2.8122306e-20 -7.6865966e-13 0.0001306223 2.3047406e-09 5.874272e-06 -1.040379e-25 4.484868e-07 -1.1298239e-05

embedder.user_embeddings.gender.LayerNorm.bias f4 [32]
00000000: 70be ba39 1359 bb39 d071 b939 ca0e bb39
00000010: 3bbe ba39 3cf0 ba39 d80e bb39 6a13 b639
00000020: f82f be39 91ad ba39 3331 bb39 46df ba39
00000030: d3d0 ba39 eeff ba39 d875 b739 fb0b b639
00000040: bb70 ba39 e8a2 ba39 8d3c c039 a042 bb39
00000050: 3833 bb39 c854 bc39 47fa b939 20f1 ba39
00000060: 64d3 ba39 6812 bb39 1361 ba39 1ade ba39
00000070: bca7 b739 be11 bb39 72bb ba39 091a ba39
0.00035618572 0.00035733785 0.00035370747 0.00035678438 0.00035618417 0.00035655673 0.0003567848 0.0003472821
0.00036275364 0.00035606002 0.00035704076 0.00035643036 0.0003563227 0.00035667367 0.0003499228 0.0003472267
0.00035560675 0.0003559806 0.00036666208 0.0003571706 0.0003570558 0.0003592132 0.0003547242 0.00035656337
0.00035634183 0.00035681133 0.0003554901 0.00035642163 0.00035029452 0.00035680638 0.00035616342 0.00035496082

embedder.user_embeddings.gender.LayerNorm.bias f4 [32]
00000000: 7502 0000 9200 0080 1002 0000 3f01 0000
00000010: 7202 0000 ce01 0000 d103 0000 1b01 0000
00000020: 4302 0080 ad01 0000 3e03 0080 de00 0080
00000030: 6a03 0080 e503 0080 0002 0000 aa01 0000
00000040: ea01 0000 b502 0080 8300 0000 3102 0080
00000050: 9b02 0080 e800 0080 8102 0000 ec02 0080
00000060: 9101 0000 ae03 0000 2503 0000 3b00 0080
00000070: aa01 0000 1002 0000 6102 0000 ca02 0000
8.81e-43 -2.05e-43 7.4e-43 4.47e-43 8.77e-43 6.47e-43 1.369e-42 3.97e-43
-8.11e-43 6.01e-43 -1.163e-42 -3.11e-43 -1.225e-42 -1.397e-42 7.17e-43 5.97e-43
6.87e-43 -9.71e-43 1.84e-43 -7.86e-43 -9.35e-43 -3.25e-43 8.98e-43 -1.048e-42
5.62e-43 1.32e-42 1.128e-42 -8.3e-44 5.97e-43 7.4e-43 8.53e-43 1e-42

embedder.mood_embeddings.mood.linear.weight f4 [32, 1]
00000000: 2d00 0080 b2d2 02b8 36e4 4533 7a01 0000
00000010: b701 0000 6700 0000 e90d 72b9 cd00 0000
00000020: 3503 0080 1ae7 fa37 4a00 0000 bf12 6239
00000030: e833 8db3 a400 0000 cc1b 8338 7238 adb8
00000040: d1f2 7527 9200 0000 9000 0000 ece6 6736
00000050: 6d12 3b26 6343 8224 f5b5 dc36 ffe4 352e
00000060: 9b01 0000 47db 6b29 e52e 52aa ed00 0080
00000070: c381 0a34 2498 bf2f 525d dfa0 3501 0000
-6.3e-44 -3.119064e-05 4.6075193e-08 5.3e-43 6.15e-43 1.44e-43 -0.000230841 2.87e-43
-1.15e-42 2.9909937e-05 1.04e-43 0.00021560023 -6.575266e-08 2.3e-43 6.251744e-05 -8.2597966e-05
3.4132211e-15 2.05e-43 2.02e-43 3.4556097e-06 6.490363e-16 5.649267e-17 6.5776935e-06 4.1358025e-11
5.76e-43 5.2370675e-14 -1.8668017e-13 -3.32e-43 1.2899459e-07 3.48508e-10 -3.7839424e-19 4.33e-43

embedder.mood_embeddings.mood.linear.bias f4 [32]
00000000: cc63 aeac 8c01 0000 f072 4538 3700 0080
00000010: d100 0080 0301 0080 fa3d dd8d 26b2 452c
00000020: 6c00 0000 cc00 0000 7bba 9d1e 4b51 88b1
00000030: 9555 8933 b229 3b8f 2da9 091b 7e00 0080
00000040: 1e58 3cb9 cdaf 9c39 42e4 3f2a 0031 4c38
00000050: 0c71 2430 4174 5b31 d600 0080 c000 0000
00000060: a324 4e86 7fb4 819d 87ee a1b9 7900 0000
00000070: 8edc 97b8 2a01 0080 1900 0080 fbcc 46ac
-4.956457e-12 5.55e-43 4.7075504e-05 -7.7e-44 -2.93e-43 -3.63e-43 -1.3635097e-30 2.8094276e-12
1.51e-43 2.86e-43 1.6700148e-20 -3.967363e-09 6.395127e-08 -9.227842e-30 1.1387038e-22 -1.77e-43
-0.00017961903 0.0002988562 1.70434e-13 4.8683025e-05 5.98235e-10 3.1934777e-09 -3e-43 2.69e-43
-3.877121e-35 -3.4332644e-21 -0.0003088603 1.7e-43 -7.2413226e-05 -4.18e-43 -3.5e-44 -2.825128e-12

embedder.mood_embeddings.mood.LayerNorm.weight f4 [32]
00000000: f3f0 ba39 5d64 ba39 a3ca ba39 5ce9 ba39
00000010: f0ea ba39 9bed ba39 121b bb39 9eee ba39
00000020: c5e9 ba39 90c8 ba39 b2ed ba39 f9b7 ba39
00000030: 63e8 ba39 f7f0 ba39 e0e8 ba39 dd0b bb39
00000040: 44f0 ba39 bcee ba39 d0ec ba39 02b1 ba39
00000050: 59ce ba39 fdb3 ba39 a8bf ba39 30ef ba39
00000060: 45d7 ba39 1402 bb39 1881 ba39 08bd ba39
00000070: 3d01 bb39 65cf ba39 d7db ba39 52f8 ba39
0.00035656206 0.0003555146 0.0003562766 0.0003565055 0.00035651727 0.00035653714 0.00035687588 0.00035654468
0.00035650856 0.00035626115 0.0003565378 0.00035613755 0.00035649826 0.00035656217 0.0003565019 0.00035676258
0.00035655696 0.00035654556 0.00035653124 0.00035608566 0.00035630426 0.00035610786 0.0003561948 0.00035654893
0.00035637073 0.00035668968 0.00035572867 0.00035617524 0.00035668342 0.00035631206 0.00035640478 0.00035661698

embedder.mood_embeddings.mood.LayerNorm.bias f4 [32]
00000000: 6f03 0080 2404 0080 4603 0000 0205 0000
00000010: b400 0000 6704 0000 0305 0000 1104 0000
00000020: 9c00 0000 7201 0000 c804 0000 1a02 0000
00000030: 0d03 0080 a201 0000 8400 0000 b302 0080
00000040: ce04 0080 2705 0080 2b04 0000 7504 0080
00000050: ca04 0000 a102 0080 1b04 0000 f002 0080
00000060: 9605 0000 4f04 0000 9d01 0080 cd01 0080
00000070: 7003 0080 e903 0000 5103 0080 7502 0080
-1.232e-42 -1.485e-42 1.174e-42 1.796e-42 2.52e-43 1.579e-42 1.798e-42 1.459e-42
2.19e-43 5.18e-43 1.715e-42 7.54e-43 -1.094e-42 5.86e-43 1.85e-43 -9.68e-43
-1.724e-42 -1.848e-42 1.495e-42 -1.599e-42 1.718e-42 -9.43e-43 1.473e-42 -1.054e-42
2.004e-42 1.546e-42 -5.79e-43 -6.46e-43 -1.233e-42 1.403e-42 -1.19e-42 -8.81e-43

embedder.Genre_embeddings.genre1.linear.weight f4 [32, 1]
00000000: 1d00 0080 0fa3 3437 ff91 1838 b001 0080
00000010: 6fe7 b337 f7ba 12b0 6b67 b730 26f4 26b5
00000020: 05e3 0eb9 af2b 4c39 3325 3d2e 1101 0000
00000030: 063b 32b8 3a01 0080 b173 0080 77e0 0634
00000040: efa4 63b7 f032 f338 4a6e 40b8 9d63 cea7
00000050: 884c 3ab1 ddd4 d532 1c01 0000 9000 0000
00000060: 1601 0080 0400 0080 08ad d5b6 a8a3 66b5
00000070: 8400 0000 a988 65b1 48ea aa39 26f2 8691
-4e-44 1.0766801e-05 3.6375593e-05 -6.05e-43 2.1446232e-05 -5.3380184e-10 1.3344396e-09 -6.21951e-07
-0.00013626747 0.0001947123 4.3006664e-11 3.83e-43 -4.2493477e-05 -4.4e-43 -4.1502e-41 1.2561382e-07
-1.3568656e-05 0.00011596631 -4.5879082e-05 -5.7284487e-15 -2.7110065e-09 2.4893263e-08 3.98e-43 2.02e-43
-3.9e-43 -6e-45 -6.368038e-06 -8.591983e-07 1.85e-43 -3.3401568e-09 0.0003259948 -2.1290708e-28

embedder.Genre_embeddings.genre1.linear.bias f4 [32]
00000000: 1e69 dfb5 1e00 0080 7c65 901e 7ec5 7234
00000010: a442 9196 f14a b721 4360 d09b 7600 0000
00000020: d09f 2680 a000 0000 fb1a 0918 bb01 0080
00000030: e734 1b35 2681 14b9 c7b8 d238 0cb8 72b5
00000040: d3dc a738 d9df 9131 8f0d bab8 2882 5d36
00000050: 1f2f dba5 fe31 a6b8 4e96 fdb5 e5b8 5930
00000060: 1600 0000 9aaf f435 724b 7833 6c6d 2b2b
00000070: 2501 0000 0bff 3d36 d79a 19ab 8f44 f0b3
-1.6645388e-06 -4.2e-44 1.5288566e-20 2.2609854e-07 -2.346807e-25 1.2420399e-18 -3.447292e-22 1.65e-43
-3.547079e-39 2.24e-43 1.7720457e-24 -6.21e-43 5.781898e-07 -0.00014162491 0.00010047998 -9.041985e-07
8.004312e-05 4.245504e-09 -8.8716966e-05 3.3007327e-06 -3.8022375e-16 -7.9248086e-05 -1.8893713e-06 7.920689e-10
3.1e-44 1.8230523e-06 5.7810617e-08 6.0903257e-13 4.1e-43 2.831165e-06 -5.4571403e-13 -1.11883416e-07

embedder.Genre_embeddings.genre1.LayerNorm.weight f4 [32]
00000000: f80a bb39 d9e1 ba39 8dac a939 be96 ba39
00000010: 79dd bd39 b73e bb39 896d bb39 eaed b439
00000020: ff0a bc39 3966 b839 36fd b939 82fb ba39
00000030: 00c7 ba39 f115 bb39 48d5 b839 4435 b739
00000040: fe16 ba39 7de3 ba39 78be af39 f612 bb39
00000050: 8789 b939 14f7 ba39 c9d8 b839 4a2a bb39
00000060: 8bcd ba39 67f4 ba39 c6df ba39 2704 bb39
00000070: 9de0 ba39 891a bb39 fa50 b939 2ed8 ba39
0.00035675592 0.00035644954 0.00032362752 0.00035588996 0.000362139 0.00035714146 0.0003574903 0.00034509535
0.00035866347 0.00035171377 0.00035474607 0.00035664072 0.0003562495 0.00035683767 0.00035254122 0.00034944166
0.00035493815 0.00035646177 0.0003352051 0.00035681546 0.00035388416 0.00035660772 0.00035256732 0.00035698927
0.00035629826 0.00035658779 0.0003564341 0.00035670513 0.00035644035 0.0003568719 0.00035346282 0.0003563775

embedder.Genre_embeddings.genre1.LayerNorm.bias f4 [32]
00000000: 5803 0000 4700 0080 5101 0000 5e02 0080
00000010: b400 0080 8002 0000 4f02 0000 8501 0080
00000020: 2200 0080 7402 0080 8902 0000 6800 0000
00000030: 4102 0080 eb04 0080 3f02 0000 9f00 0000
00000040: bc00 0080 2804 0000 5102 0080 2601 0080
00000050: a300 0080 2a01 0080 5402 0000 0702 0000
00000060: 4900 0000 7601 0080 9301 0080 3c03 0080
00000070: 6900 0000 7301 0080 5402 0080 1101 0000
1.2e-42 -1e-43 4.72e-43 -8.49e-43 -2.52e-43 8.97e-43 8.28e-43 -5.45e-43
-4.8e-44 -8.8e-43 9.1e-43 1.46e-43 -8.09e-43 -1.764e-42 8.06e-43 2.23e-43
-2.63e-43 1.491e-42 -8.31e-43 -4.12e-43 -2.28e-43 -4.18e-43 8.35e-43 7.27e-43
1.02e-43 -5.24e-43 -5.65e-43 -1.16e-42 1.47e-43 -5.2e-43 -8.35e-43 3.83e-43

embedder.Genre_embeddings.genre2.linear.weight f4 [32, 1]
00000000: 17ee 6030 4798 5030 fb77 27b7 ae00 0080
00000010: c28e b6aa 3c51 8308 f300 0080 ba01 0080
00000020: a3ac 4d28 6452 88b9 d5a2 0380 2700 0000
00000030: 6900 0080 0441 e70d 3c75 7f2a f9ae 9537
00000040: 593b 3a2f d02f 90b6 4300 0080 5e19 58b8
00000050: b101 0000 d481 412b 0b01 0080 0500 0080
00000060: ce4f c737 25be d0ae 061a 7826 2bbc 9eb0
00000070: 703f 2eb3 143f f01e 2000 0000 8f01 0080
8.182907e-10 7.588636e-10 -9.981911e-06 -2.44e-43 -3.2428753e-13 7.903374e-34 -3.4e-43 -6.2e-43
1.1417221e-14 -0.00026001327 -3.3392e-40 5.5e-44 -1.47e-43 1.4252126e-30 2.2689224e-13 1.7843662e-05
1.6937686e-10 -4.2971005e-06 -9.4e-44 -5.1522038e-05 6.07e-43 6.8747547e-13 -3.74e-43 -7e-45
2.375981e-05 -9.4925214e-11 8.6077553e-16 -1.1549494e-09 -4.0570228e-08 2.5437077e-20 4.5e-44 -5.59e-43

embedder.Genre_embeddings.genre2.linear.bias f4 [32]
00000000: fca3 e435 4624 1024 9f6a e525 3600 0000
00000010: a007 94b7 5895 3134 cb00 0000 5c00 0080
00000020: 98bc a9b4 0553 a730 0f01 0000 9500 0080
00000030: 4201 0000 8500 0000 db00 0080 ca9f 0438
00000040: ba34 02b9 84f4 cf31 f300 0080 ac45 1e37
00000050: da7d c589 67e2 8a37 7300 0000 16df ff08
00000060: 0a00 0080 bd26 0739 4657 1eb5 d778 2833
00000070: 595c b6af 3b31 2c39 1ec9 23b7 c2d2 d9b5
1.703505e-06 3.1255747e-17 3.9797417e-16 7.6e-44 -1.7646526e-05 1.653874e-07 2.84e-43 -1.29e-43
-3.1615923e-07 1.2174445e-09 3.8e-43 -2.09e-43 4.51e-43 1.86e-43 -3.07e-43 3.1620068e-05
-0.00012417408 6.052291e-09 -3.4e-43 9.433756e-06 -4.7544375e-33 1.6556309e-05 1.61e-43 1.53997015e-33
-1.4e-44 0.00012889034 -5.8986586e-07 3.922545e-08 -3.3171224e-10 0.00016421538 -9.762383e-06 -1.6229098e-06

embedder.Genre_embeddings.genre2.LayerNorm.weight f4 [32]
00000000: b996 ba39 11fd ba39 04b8 c239 31f7 ba39
00000010: 10af b639 4781 ba39 e6d1 ba39 f7ea b939
00000020: 59e9 ba39 6b43 bc39 724d bb39 1ce0 ba39
00000030: 9fec ba39 96e2 ba39 a30d ba39 51f4 ab39
00000040: 61d2 ba39 b106 bb39 b695 b839 e304 bb39
00000050: 9924 bb39 ecb4 bc39 203a bb39 d3dd ba39
00000060: feff b939 34e3 ba39 7be0 ba39 73ea ba39
00000070: cf6a b939 9006 ba39 4ece bb39 fce0 ba39
0.00035588982 0.00035665234 0.00037139666 0.00035660857 0.00034844177 0.00035573004 0.0003563307 0.00035461012
0.00035650542 0.00035908385 0.0003572512 0.0003564366 0.0003565298 0.00035645504 0.00035486845 0.00032797692
0.0003563343 0.00035672405 0.00035206758 0.0003567106 0.00035694687 0.00035992952 0.00035710726 0.00035641956
0.0003547668 0.00035645964 0.00035643936 0.00035651363 0.00035365528 0.00035481574 0.00035821128 0.0003564431

embedder.Genre_embeddings.genre2.LayerNorm.bias f4 [32]
00000000: 7200 0080 b900 0000 e101 0080 1003 0000
00000010: f901 0000 1303 0000 1e02 0000 4c01 0080
00000020: 5d01 0000 5000 0080 7100 0080 ab00 0080
00000030: 5102 0000 1203 0080 5a00 0080 fd01 0080
00000040: 5c01 0080 3204 0080 aa01 0000 6a01 0080
00000050: 5e00 0000 6c01 0080 5302 0080 8a03 0000
00000060: 2c02 0000 8802 0000 3f02 0000 ac02 0080
00000070: 3400 0000 6602 0000 5100 0000 9e02 0000
-1.6e-43 2.59e-43 -6.74e-43 1.099e-42 7.08e-43 1.103e-42 7.6e-43 -4.65e-43
4.89e-43 -1.12e-43 -1.58e-43 -2.4e-43 8.31e-43 -1.101e-42 -1.26e-43 -7.13e-43
-4.88e-43 -1.505e-42 5.97e-43 -5.07e-43 1.32e-43 -5.1e-43 -8.34e-43 1.27e-42
7.79e-43 9.08e-43 8.06e-43 -9.58e-43 7.3e-44 8.6e-43 1.14e-43 9.39e-43

mha.linear.weight f4 [32, 32]
00000000: 5800 0000 4201 0000 9101 0080 5301 0000
00000010: 5801 0080 7500 0000 4300 0000 e500 0000
00000020: 7301 0080 1b01 0080 7600 0080 9100 0000
00000030: ac00 0000 a700 0080 a100 0000 6800 0000
00000040: c800 0000 3701 0080 3801 0080 9a00 0080
00000050: b101 0000 a701 0080 3b00 0080 5f00 0080
00000060: 9601 0080 a901 0000 1001 0080 4000 0080
00000070: 8a00 0000 8e00 0000 7100 0000 5401 0080
00000080: 5700 0000 5b01 0000 b300 0000 3e00 0000
00000090: 9601 0000 b300 0000 1e01 0000 9a00 0080
000000a0: 0301 0080 1701 0000 4101 0000 2d01 0080
000000b0: 9e01 0080 1000 0080 b700 0000 ca01 0080
000000c0: 9e00 0000 0200 0080 2f01 0080 7600 0080
000000d0: 4701 0000 9900 0000 0000 0080 3e00 0000
000000e0: 1201 0080 b501 0080 6a00 0000 bb01 0080
000000f0: d001 0080 0701 0000 1701 0080 2c00 0000
00000100: c900 0080 1f01 0080 2f01 0000 7f00 0080
00000110: 5401 0000 cb01 0080 b501 0080 4d00 0080
00000120: f700 0080 2f01 0000 2a00 0080 d100 0080
00000130: 0601 0000 ca00 0000 6a00 0080 0301 0080
00000140: 5f01 0080 4e00 0080 9b01 0080 4c00 0080
00000150: 1d00 0000 c601 0000 6601 0000 4202 0080
00000160: 2701 0080 d500 0080 b501 0080 a200 0000
00000170: 8f00 0080 0e01 0000 5d00 0080 c700 0080
00000180: 8e00 0080 4f00 0000 6001 0080 0201 0000
00000190: dd00 0080 3700 0000 4f01 0000 1800 0000
000001a0: 0800 0080 0900 0000 2d00 0000 2700 0000
000001b0: 0d01 0000 4700 0000 7e00 0080 0e01 0000
000001c0: bc00 0080 bc00 0000 2701 0000 c001 0000
000001d0: 2900 0000 9b01 0080 c100 0000 df00 0000
000001e0: 8c00 0000 1f01 0080 e400 0000 6601 0080
000001f0: a701 0000 c900 0080 c501 0080 8801 0000
00000200: 8200 0000 4b01 0000 5d01 0080 6701 0000
00000210: 9401 0000 3501 0000 2e01 0000 3900 0080
00000220: 6701 0000 cc00 0000 de00 0000 f100 0000
00000230: 1101 0080 4200 0080 4b01 0000 e100 0080
00000240: 2a01 0000 c401 0080 ed00 0080 3d01 0000
00000250: 2301 0080 4300 0000 3200 0000 5101 0000
00000260: 3701 0080 3701 0080 5d01 0080 1000 0000
00000270: 9701 0080 e000 0000 e300 0080 7000 0080
00000280: 3101 0000 7200 0080 5201 0080 6d00 0080
00000290: ae01 0080 4c00 0080 2300 0000 d300 0000
000002a0: b201 0000 3201 0000 3100 0000 ea01 0080
000002b0: 4800 0000 3e00 0080 9501 0080 3401 0080
000002c0: 3200 0000 7201 0000 5600 0080 b400 0000
000002d0: 6200 0000 9300 0000 ce01 0080 7b01 0000
000002e0: 1800 0080 9300 0080 0c01 0080 d800 0000
000002f0: 3601 0080 1101 0000 c100 0000 5500 0000
00000300: c000 0000 fa01 0080 0501 0000 3e00 0080
00000310: b701 0080 c400 0080 a301 0080 f000 0000
00000320: 8a00 0080 2e00 0080 6d01 0080 ab01 0000
00000330: 8300 0000 ee00 0080 df01 0000 bb01 0080
00000340: 9201 0000 b900 0000 5601 0000 6d01 0000
00000350: 4b00 0000 3a01 0080 9001 0080 3c01 0000
00000360: 3e01 0080 2d01 0080 bd01 0000 8201 0080
00000370: a900 0000 7c01 0000 e800 0000 a201 0080
00000380: 4901 0000 1500 0080 a701 0000 6901 0000
00000390: da00 0080 5a00 0000 aa01 0080 9700 0000
000003a0: 5a01 0080 5501 0080 c501 0080 7e01 0000
000003b0: ec00 0080 3800 0080 b501 0000 9201 0000
000003c0: 9a00 0000 eb00 0000 3601 0000 db00 0080
000003d0: 0301 0000 3900 0000 3f00 0080 3301 0080
000003e0: 1800 0000 0101 0000 f400 0080 f600 0000
000003f0: d101 0000 3301 0080 6700 0000 a301 0000
1.23e-43 4.51e-43 -5.62e-43 4.75e-43 -4.82e-43 1.64e-43 9.4e-44 3.21e-43
-5.2e-43 -3.97e-43 -1.65e-43 2.03e-43 2.41e-43 -2.34e-43 2.26e-43 1.46e-43
2.8e-43 -4.36e-43 -4.37e-43 -2.16e-43 6.07e-43 -5.93e-43 -8.3e-44 -1.33e-43
-5.69e-43 5.96e-43 -3.81e-43 -9e-44 1.93e-43 1.99e-43 1.58e-43 -4.76e-43
1.22e-43 4.86e-43 2.51e-43 8.7e-44 5.69e-43 2.51e-43 4.01e-43 -2.16e-43
-3.63e-43 3.91e-43 4.5e-43 -4.22e-43 -5.8e-43 -2.2e-44 2.56e-43 -6.42e-43
2.21e-43 -3e-45 -4.25e-43 -1.65e-43 4.58e-43 2.14e-43 -0.0 8.7e-44
-3.84e-43 -6.12e-43 1.49e-43 -6.21e-43 -6.5e-43 3.69e-43 -3.91e-43 6.2e-44
-2.82e-43 -4.02e-43 4.25e-43 -1.78e-43 4.76e-43 -6.43e-43 -6.12e-43 -1.08e-43
-3.46e-43 4.25e-43 -5.9e-44 -2.93e-43 3.67e-43 2.83e-43 -1.49e-43 -3.63e-43
-4.92e-43 -1.1e-43 -5.76e-43 -1.06e-43 4e-44 6.36e-43 5.02e-43 -8.1e-43
-4.13e-43 -2.98e-43 -6.12e-43 2.27e-43 -2e-43 3.78e-43 -1.3e-43 -2.79e-43
-1.99e-43 1.11e-43 -4.93e-43 3.62e-43 -3.1e-43 7.7e-44 4.7e-43 3.4e-44
-1.1e-44 1.3e-44 6.3e-44 5.5e-44 3.77e-43 1e-43 -1.77e-43 3.78e-43
-2.63e-43 2.63e-43 4.13e-43 6.28e-43 5.7e-44 -5.76e-43 2.7e-43 3.12e-43
1.96e-43 -4.02e-43 3.2e-43 -5.02e-43 5.93e-43 -2.82e-43 -6.35e-43 5.5e-43
1.82e-43 4.64e-43 -4.89e-43 5.03e-43 5.66e-43 4.33e-43 4.23e-43 -8e-44
5.03e-43 2.86e-43 3.11e-43 3.38e-43 -3.83e-43 -9.2e-44 4.64e-43 -3.15e-43
4.18e-43 -6.33e-43 -3.32e-43 4.44e-43 -4.08e-43 9.4e-44 7e-44 4.72e-43
-4.36e-43 -4.36e-43 -4.89e-43 2.2e-44 -5.7e-43 3.14e-43 -3.18e-43 -1.57e-43
4.27e-43 -1.6e-43 -4.74e-43 -1.53e-43 -6.03e-43 -1.06e-43 4.9e-44 2.96e-43
6.08e-43 4.29e-43 6.9e-44 -6.87e-43 1.01e-43 -8.7e-44 -5.68e-43 -4.32e-43
7e-44 5.18e-43 -1.2e-43 2.52e-43 1.37e-43 2.06e-43 -6.47e-43 5.31e-43
-3.4e-44 -2.06e-43 -3.76e-43 3.03e-43 -4.34e-43 3.83e-43 2.7e-43 1.19e-43
2.69e-43 -7.09e-43 3.66e-43 -8.7e-44 -6.15e-43 -2.75e-43 -5.87e-43 3.36e-43
-1.93e-43 -6.4e-44 -5.11e-43 5.98e-43 1.84e-43 -3.34e-43 6.71e-43 -6.21e-43
5.63e-43 2.59e-43 4.79e-43 5.11e-43 1.05e-43 -4.4e-43 -5.6e-43 4.43e-43
-4.46e-43 -4.22e-43 6.24e-43 -5.41e-43 2.37e-43 5.32e-43 3.25e-43 -5.86e-43
4.61e-43 -3e-44 5.93e-43 5.06e-43 -3.05e-43 1.26e-43 -5.97e-43 2.12e-43
-4.85e-43 -4.78e-43 -6.35e-43 5.35e-43 -3.31e-43 -7.8e-44 6.12e-43 5.63e-43
2.16e-43 3.3e-43 4.34e-43 -3.07e-43 3.63e-43 8e-44 -8.8e-44 -4.3e-43
3.4e-44 3.6e-43 -3.42e-43 3.45e-43 6.52e-43 -4.3e-43 1.44e-43 5.87e-43

mha.linear.bias f4 [32]
00000000: c001 0080 4900 0080 9400 0080 a800 0000
00000010: b201 0000 6b00 0080 5b00 0080 f000 0000
00000020: a200 0080 fd00 0080 6000 0000 b101 0000
00000030: ed00 0080 a201 0080 5200 0000 b701 0080
00000040: 6d00 0080 8600 0080 2346 2500 f500 0000
00000050: 3f01 0080 8300 0000 1100 0000 2b00 0000
00000060: 6801 0080 d600 0000 6001 0080 bc00 0080
00000070: 1701 0000 c601 0080 c700 0080 8001 0000
-6.28e-43 -1.02e-43 -2.07e-43 2.35e-43 6.08e-43 -1.5e-43 -1.28e-43 3.36e-43
-2.27e-43 -3.55e-43 1.35e-43 6.07e-43 -3.32e-43 -5.86e-43 1.15e-43 -6.15e-43
-1.53e-43 -1.88e-43 3.423074e-39 3.43e-43 -4.47e-43 1.84e-43 2.4e-44 6e-44
-5.04e-43 3e-43 -4.93e-43 -2.63e-43 3.91e-43 -6.36e-43 -2.79e-43 5.38e-43

mha.l_to_score.layers.0.weight f4 [16, 16]
00000000: d300 0000 7b01 0000 e500 0080 fc01 0080
00000010: d401 0080 4b01 0000 2200 0080 b300 0080
00000020: 5e01 0080 0800 0080 8500 0080 2e01 0080
00000030: 5b00 0000 8200 0080 4500 0080 1a00 0080
00000040: c700 0080 6f01 0000 5b01 0000 3801 0080
00000050: 5400 0080 9702 0080 5601 0080 9d00 0080
00000060: 4601 0080 9202 0080 2400 0000 7601 0000
00000070: a201 0080 9600 0000 3401 0000 8800 0080
00000080: 2400 0080 5301 0000 3e01 0080 b100 0080
00000090: 3c01 0080 a700 0000 6801 0000 4b01 0080
000000a0: 1000 0000 5e01 0080 4001 0000 8501 0000
000000b0: 4c00 0000 7901 0080 ed00 0080 9901 0080
000000c0: 6600 0000 5500 0080 4901 0000 aa01 0080
000000d0: 0d01 0080 4801 0000 3a00 0080 2401 0080
000000e0: 4901 0080 bc00 0080 4200 0000 8700 0080
000000f0: 2f00 0000 9301 0080 7901 0080 8201 0000
00000100: a900 0000 cb00 0080 f301 0080 bc01 0080
00000110: c401 0000 4a01 0000 8b01 0000 da00 0000
00000120: 4500 0000 6600 0000 6801 0000 b601 0080
00000130: a400 0000 2501 0080 ce01 0000 2e01 0080
00000140: 7100 0080 b901 0000 9000 0000 fd00 0080
00000150: 9101 0000 2900 0000 e700 0000 0601 0080
00000160: 7300 0000 b600 0000 1500 0080 e600 0000
00000170: 7e01 0000 1000 0000 8701 0000 2b01 0000
00000180: 9b00 0080 2601 0000 b701 0080 7701 0000
00000190: 3e01 0080 2a01 0080 1500 0000 1501 0080
000001a0: 5f00 0000 4402 0080 8c01 0000 b101 0080
000001b0: a600 0080 4400 0080 b201 0000 2901 0080
000001c0: 4301 0000 d700 0080 8e01 0000 3102 0080
000001d0: 7701 0000 7500 0080 1e01 0080 e900 0080
000001e0: 2801 0080 0600 0000 0702 0000 4500 0000
000001f0: 9300 0080 c600 0000 cb01 0000 7100 0000
00000200: 7500 0000 4b00 0080 3700 0080 8c01 0080
00000210: c101 0000 6b00 0000 2a00 0000 cc00 0000
00000220: 8a00 0000 3f00 0080 4701 0080 e600 0080
00000230: 7601 0080 c900 0000 3800 0080 5001 0080
00000240: aa01 0000 9101 0080 5b00 0080 f300 0080
00000250: 3100 0000 8700 0000 1a00 0000 8701 0080
00000260: 8d00 0000 f701 0080 b100 0080 c101 0000
00000270: e100 0080 c400 0000 0200 0000 9201 0080
00000280: 7300 0080 b402 0000 6400 0080 6700 0000
00000290: 4300 0000 9101 0000 2d01 0080 f000 0000
000002a0: e000 0000 e200 0080 e900 0080 3200 0000
000002b0: 8601 0000 1601 0080 7900 0080 9a00 0080
000002c0: 1c00 0080 2701 0000 1801 0000 9d01 0000
000002d0: de00 0080 ef00 0000 1b01 0080 4f01 0080
000002e0: 1c00 0000 8700 0080 4100 0080 9001 0080
000002f0: 0901 0080 a800 0080 9e01 0000 3301 0000
00000300: c400 0080 7c01 0080 9100 0080 8300 0000
00000310: 2500 0080 1e02 0000 3300 0000 ca00 0080
00000320: 4e01 0080 5a01 0000 ca00 0080 ba00 0080
00000330: 1001 0080 3100 0000 5800 0080 e800 0000
00000340: 9001 0000 9a00 0080 b300 0080 a700 0000
00000350: 5200 0080 b600 0000 b601 0000 8e00 0000
00000360: 3f01 0080 e700 0080 c000 0080 cb00 0000
00000370: 9100 0080 8201 0080 3c00 0000 3801 0000
00000380: 4800 0000 fd00 0080 ad01 0080 8d00 0000
00000390: 7900 0000 5c00 0080 8101 0000 0d01 0080
000003a0: ec00 0080 a701 0000 5300 0080 bc00 0000
000003b0: 3001 0080 e501 0000 2800 0000 7c01 0000
000003c0: d501 0000 c601 0000 df00 0080 a201 0080
000003d0: 1800 0000 4900 0080 3c01 0080 9201 0000
000003e0: fc00 0080 d600 0000 4e00 0080 6000 0000
000003f0: 6500 0080 d400 0000 a101 0000 6501 0080
2.96e-43 5.31e-43 -3.21e-43 -7.12e-43 -6.56e-43 4.64e-43 -4.8e-44 -2.51e-43
-4.9e-43 -1.1e-44 -1.86e-43 -4.23e-43 1.28e-43 -1.82e-43 -9.7e-44 -3.6e-44
-2.79e-43 5.14e-43 4.86e-43 -4.37e-43 -1.18e-43 -9.29e-43 -4.79e-43 -2.2e-43
-4.57e-43 -9.22e-43 5e-44 5.24e-43 -5.86e-43 2.1e-43 4.32e-43 -1.9e-43
-5e-44 4.75e-43 -4.46e-43 -2.48e-43 -4.43e-43 2.34e-43 5.04e-43 -4.64e-43
2.2e-44 -4.9e-43 4.48e-43 5.45e-43 1.06e-43 -5.28e-43 -3.32e-43 -5.73e-43
1.43e-43 -1.19e-43 4.61e-43 -5.97e-43 -3.77e-43 4.6e-43 -8.1e-44 -4.09e-43
-4.61e-43 -2.63e-43 9.2e-44 -1.89e-43 6.6e-44 -5.65e-43 -5.28e-43 5.41e-43
2.37e-43 -2.84e-43 -6.99e-43 -6.22e-43 6.33e-43 4.62e-43 5.54e-43 3.05e-43
9.7e-44 1.43e-43 5.04e-43 -6.14e-43 2.3e-43 -4.1e-43 6.47e-43 -4.23e-43
-1.58e-43 6.18e-43 2.02e-43 -3.55e-43 5.62e-43 5.7e-44 3.24e-43 -3.67e-43
1.61e-43 2.55e-43 -3e-44 3.22e-43 5.35e-43 2.2e-44 5.48e-43 4.19e-43
-2.17e-43 4.12e-43 -6.15e-43 5.25e-43 -4.46e-43 -4.18e-43 3e-44 -3.88e-43
1.33e-43 -8.13e-43 5.55e-43 -6.07e-43 -2.33e-43 -9.5e-44 6.08e-43 -4.16e-43
4.53e-43 -3.01e-43 5.58e-43 -7.86e-43 5.25e-43 -1.64e-43 -4.01e-43 -3.27e-43
-4.15e-43 8e-45 7.27e-43 9.7e-44 -2.06e-43 2.77e-43 6.43e-43 1.58e-43
1.64e-43 -1.05e-43 -7.7e-44 -5.55e-43 6.29e-43 1.5e-43 5.9e-44 2.86e-43
1.93e-43 -8.8e-44 -4.58e-43 -3.22e-43 -5.24e-43 2.82e-43 -7.8e-44 -4.71e-43
5.97e-43 -5.62e-43 -1.28e-43 -3.4e-43 6.9e-44 1.89e-43 3.6e-44 -5.48e-43
1.98e-43 -7.05e-43 -2.48e-43 6.29e-43 -3.15e-43 2.75e-43 3e-45 -5.63e-43
-1.61e-43 9.7e-43 -1.4e-43 1.44e-43 9.4e-44 5.62e-43 -4.22e-43 3.36e-43
3.14e-43 -3.17e-43 -3.27e-43 7e-44 5.47e-43 -3.9e-43 -1.7e-43 -2.16e-43
-3.9e-44 4.13e-43 3.92e-43 5.79e-43 -3.11e-43 3.35e-43 -3.97e-43 -4.7e-43
3.9e-44 -1.89e-43 -9.1e-44 -5.6e-43 -3.71e-43 -2.35e-43 5.8e-43 4.3e-43
-2.75e-43 -5.32e-43 -2.03e-43 1.84e-43 -5.2e-44 7.6e-43 7.1e-44 -2.83e-43
-4.68e-43 4.85e-43 -2.83e-43 -2.6e-43 -3.81e-43 6.9e-44 -1.23e-43 3.25e-43
5.6e-43 -2.16e-43 -2.51e-43 2.34e-43 -1.15e-43 2.55e-43 6.14e-43 1.99e-43
-4.47e-43 -3.24e-43 -2.69e-43 2.84e-43 -2.03e-43 -5.41e-43 8.4e-44 4.37e-43
1.01e-43 -3.55e-43 -6.01e-43 1.98e-43 1.7e-43 -1.29e-43 5.4e-43 -3.77e-43
-3.31e-43 5.93e-43 -1.16e-43 2.63e-43 -4.26e-43 6.8e-43 5.6e-44 5.32e-43
6.57e-43 6.36e-43 -3.12e-43 -5.86e-43 3.4e-44 -1.02e-43 -4.43e-43 5.63e-43
-3.53e-43 3e-43 -1.1e-43 1.35e-43 -1.42e-43 2.97e-43 5.84e-43 -5e-43

mha.l_to_score.layers.0.bias f4 [16]
00000000: 1900 0000 d000 0080 cc01 0080 ca01 0000
00000010: c100 0080 4b01 0080 aa01 0080 3d00 0000
00000020: 1701 0000 2301 0000 cc00 0080 c800 0000
00000030: 1f00 0080 d200 0080 5601 0080 8d00 0080
3.5e-44 -2.91e-43 -6.45e-43 6.42e-43 -2.7e-43 -4.64e-43 -5.97e-43 8.5e-44
3.91e-43 4.08e-43 -2.86e-43 2.8e-43 -4.3e-44 -2.94e-43 -4.79e-43 -1.98e-43

mha.l_to_score.layers.2.weight f4 [1, 16]
00000000: a600 0000 d300 0000 2c00 0080 a601 0080
00000010: 0d00 0000 c401 0080 6100 0000 9c01 0080
00000020: 2600 0000 8300 0000 e100 0000 0f00 0080
00000030: 8d00 0000 0a01 0080 5d00 0000 6500 0000
2.33e-43 2.96e-43 -6.2e-44 -5.91e-43 1.8e-44 -6.33e-43 1.36e-43 -5.77e-43
5.3e-44 1.84e-43 3.15e-43 -2.1e-44 1.98e-43 -3.73e-43 1.3e-43 1.42e-43

mha.s_to_score.layers.0.weight f4 [16, 16]
00000000: c300 0080 b200 0080 b701 0080 9701 0000
00000010: b900 0080 0900 0080 6d00 0080 5e00 0080
00000020: 1001 0000 0401 0080 3c00 0080 4101 0080
00000030: 1a00 0080 8a00 0080 0901 0080 1a00 0000
00000040: 2c00 0000 6401 0080 2a01 0000 9a01 0080
00000050: 8501 0080 6e01 0000 6301 0000 bd00 0080
00000060: 1601 0080 4200 0000 d800 0000 1300 0000
00000070: 2c00 0080 4f00 0080 7f00 0080 fd00 0080
00000080: 0501 0000 3e00 0080 9901 0080 9101 0000
00000090: 2200 0000 4000 0080 b800 0000 3c01 0080
000000a0: c501 0000 0801 0080 cc01 0000 b800 0080
000000b0: 4301 0000 3001 0080 2500 0000 4d00 0000
000000c0: 8400 0080 cf00 0080 1100 0080 4400 0080
000000d0: 7f01 0080 3d00 0080 0103 0000 2c01 0080
000000e0: 9b01 0080 5201 0000 4800 0000 6103 0000
000000f0: 7301 0000 3302 0000 8401 0080 cb00 0000
00000100: 5601 0080 ab00 0080 e800 0000 c301 0080
00000110: 4701 0080 af00 0000 df00 0000 2e00 0080
00000120: 8f01 0000 c100 0000 9400 0000 6e05 0000
00000130: 1401 0000 1800 0080 3b01 0080 cb00 0000
00000140: 6501 0000 0b00 0000 ed00 0000 a000 0000
00000150: 0f00 0000 c801 0000 9d00 0000 2801 0080
00000160: 6b00 0000 2f01 0000 b000 0080 bb00 0000
00000170: 5101 0000 ed00 0080 f601 0000 a501 0080
00000180: cb00 0000 df01 0080 6b01 0080 0b01 0000
00000190: e300 0080 e201 0000 1800 0000 4500 0000
000001a0: 8600 0080 0000 0080 2b01 0000 bd00 0080
000001b0: 1701 0080 8501 0080 9100 0080 5501 0000
000001c0: a700 0000 6200 0000 8601 0000 8a01 0000
000001d0: 7301 0080 8400 0000 3d01 0080 6401 0080
000001e0: 5d01 0080 b701 0080 0601 0080 3f00 0080
000001f0: 9100 0000 1401 0080 bf00 0000 8300 0080
00000200: 6e01 0080 d100 0000 3400 0000 9e01 0000
00000210: f900 0080 9701 0000 7b00 0000 ca00 0000
00000220: 4400 0080 3301 0080 4101 0000 3d01 0000
00000230: d500 0080 f200 0080 1301 0080 4400 0080
00000240: 5700 0000 0201 0080 c401 0080 ab01 0080
00000250: 4200 0000 b900 0000 c800 0000 f800 0080
00000260: 8900 0080 2e01 0080 1001 0000 3000 0000
00000270: 7d00 0080 2001 0000 dd00 0080 3601 0000
00000280: f600 0080 0e00 0080 bb01 0000 8600 0080
00000290: 7e01 0000 4700 0000 3702 0080 3d00 0000
000002a0: a601 0000 6001 0080 8701 0000 5d01 0080
000002b0: 7c00 0080 c001 0080 4800 0080 4a00 0000
000002c0: a901 0000 4600 0000 4f00 0080 9600 0000
000002d0: 2a00 0080 4900 0000 7b01 0080 e700 0000
000002e0: 2f00 0080 4500 0000 f900 0080 2200 0000
000002f0: 6c00 0000 c100 0080 6300 0080 a901 0000
00000300: 8700 0000 2b00 0000 5d00 0080 5800 0080
00000310: 7e00 0080 8200 0000 4f01 0000 da00 0080
00000320: 1400 0080 2101 0000 9200 0000 3e00 0080
00000330: 8500 0080 6701 0080 3301 0000 2500 0080
00000340: 3a01 0080 7500 0000 7d01 0000 3d01 0080
00000350: 0401 0000 2800 0000 6b00 0080 a501 0080
00000360: 0a00 0080 6f00 0080 a800 0000 2105 0080
00000370: cf03 0000 4401 0000 0e00 0080 4400 0000
00000380: 3001 0000 3500 0000 c101 0080 b200 0000
00000390: bb01 0080 2000 0080 8301 0000 1b00 0080
000003a0: 8a00 0080 4800 0000 1200 0000 a600 0000
000003b0: a400 0080 2601 0080 f500 0000 a701 0080
000003c0: 3101 0080 4201 0000 2b00 0080 b001 0080
000003d0: c700 0000 8801 0080 c200 0080 e101 0080
000003e0: 7c00 0000 0801 0080 1d01 0000 5101 0080
000003f0: 4001 0080 0101 0080 0500 0000 6600 0000
-2.73e-43 -2.5e-43 -6.15e-43 5.7e-43 -2.59e-43 -1.3e-44 -1.53e-43 -1.32e-43
3.81e-43 -3.64e-43 -8.4e-44 -4.5e-43 -3.6e-44 -1.93e-43 -3.71e-43 3.6e-44
6.2e-44 -4.99e-43 4.18e-43 -5.75e-43 -5.45e-43 5.13e-43 4.97e-43 -2.65e-43
-3.9e-43 9.2e-44 3.03e-43 2.7e-44 -6.2e-44 -1.11e-43 -1.78e-43 -3.55e-43
3.66e-43 -8.7e-44 -5.73e-43 5.62e-43 4.8e-44 -9e-44 2.58e-43 -4.43e-43
6.35e-43 -3.7e-43 6.45e-43 -2.58e-43 4.53e-43 -4.26e-43 5.2e-44 1.08e-43
-1.85e-43 -2.9e-43 -2.4e-44 -9.5e-44 -5.37e-43 -8.5e-44 1.078e-42 -4.2e-43
-5.76e-43 4.74e-43 1.01e-43 1.212e-42 5.2e-43 7.89e-43 -5.44e-43 2.84e-43
-4.79e-43 -2.4e-43 3.25e-43 -6.32e-43 -4.58e-43 2.45e-43 3.12e-43 -6.4e-44
5.59e-43 2.7e-43 2.07e-43 1.948e-42 3.87e-43 -3.4e-44 -4.41e-43 2.84e-43
5e-43 1.5e-44 3.32e-43 2.24e-43 2.1e-44 6.39e-43 2.2e-43 -4.15e-43
1.5e-43 4.25e-43 -2.47e-43 2.62e-43 4.72e-43 -3.32e-43 7.03e-43 -5.9e-43
2.84e-43 -6.71e-43 -5.09e-43 3.74e-43 -3.18e-43 6.75e-43 3.4e-44 9.7e-44
-1.88e-43 -0.0 4.19e-43 -2.65e-43 -3.91e-43 -5.45e-43 -2.03e-43 4.78e-43
2.34e-43 1.37e-43 5.47e-43 5.52e-43 -5.2e-43 1.85e-43 -4.44e-43 -4.99e-43
-4.89e-43 -6.15e-43 -3.67e-43 -8.8e-44 2.03e-43 -3.87e-43 2.68e-43 -1.84e-43
-5.13e-43 2.93e-43 7.3e-44 5.8e-43 -3.49e-43 5.7e-43 1.72e-43 2.83e-43
-9.5e-44 -4.3e-43 4.5e-43 4.44e-43 -2.98e-43 -3.39e-43 -3.85e-43 -9.5e-44
1.22e-43 -3.62e-43 -6.33e-43 -5.98e-43 9.2e-44 2.59e-43 2.8e-43 -3.48e-43
-1.92e-43 -4.23e-43 3.81e-43 6.7e-44 -1.75e-43 4.04e-43 -3.1e-43 4.34e-43
-3.45e-43 -2e-44 6.21e-43 -1.88e-43 5.35e-43 1e-43 -7.95e-43 8.5e-44
5.91e-43 -4.93e-43 5.48e-43 -4.89e-43 -1.74e-43 -6.28e-43 -1.01e-43 1.04e-43
5.96e-43 9.8e-44 -1.11e-43 2.1e-43 -5.9e-44 1.02e-43 -5.31e-43 3.24e-43
-6.6e-44 9.7e-44 -3.49e-43 4.8e-44 1.51e-43 -2.7e-43 -1.39e-43 5.96e-43
1.89e-43 6e-44 -1.3e-43 -1.23e-43 -1.77e-43 1.82e-43 4.7e-43 -3.05e-43
-2.8e-44 4.05e-43 2.05e-43 -8.7e-44 -1.86e-43 -5.03e-43 4.3e-43 -5.2e-44
-4.4e-43 1.64e-43 5.34e-43 -4.44e-43 3.64e-43 5.6e-44 -1.5e-43 -5.9e-43
-1.4e-44 -1.56e-43 2.35e-43 -1.84e-42 1.366e-42 4.54e-43 -2e-44 9.5e-44
4.26e-43 7.4e-44 -6.29e-43 2.5e-43 -6.21e-43 -4.5e-44 5.42e-43 -3.8e-44
-1.93e-43 1.01e-43 2.5e-44 2.33e-43 -2.3e-43 -4.12e-43 3.43e-43 -5.93e-43
-4.27e-43 4.51e-43 -6e-44 -6.05e-43 2.79e-43 -5.5e-43 -2.72e-43 -6.74e-43
1.74e-43 -3.7e-43 4e-43 -4.72e-43 -4.48e-43 -3.6e-43 7e-45 1.43e-43

mha.s_to_score.layers.0.bias f4 [16]
00000000: 1c01 0080 6400 0080 1a01 0000 d200 0000
00000010: 1301 0000 4700 0000 4901 0080 1b00 0080
00000020: 4400 0000 ab01 0080 5401 0080 8601 0080
00000030: 6d01 0000 3c01 0080 2000 0080 c701 0080
-3.98e-43 -1.4e-43 3.95e-43 2.94e-43 3.85e-43 1e-43 -4.61e-43 -3.8e-44
9.5e-44 -5.98e-43 -4.76e-43 -5.47e-43 5.11e-43 -4.43e-43 -4.5e-44 -6.38e-43

mha.s_to_score.layers.2.weight f4 [1, 16]
00000000: 7400 0000 2401 0080 3f00 0080 4900 0080
00000010: 2e01 0000 1400 0080 2500 0080 3100 0080
00000020: df00 0080 5000 0000 aa01 0080 4c01 0080
00000030: bc01 0080 9801 0080 2001 0000 d800 0080
1.63e-43 -4.09e-43 -8.8e-44 -1.02e-43 4.23e-43 -2.8e-44 -5.2e-44 -6.9e-44
-3.12e-43 1.12e-43 -5.97e-43 -4.65e-43 -6.22e-43 -5.72e-43 4.04e-43 -3.03e-43

mha.zl_to_score.layers.0.weight f4 [16, 16]
00000000: c201 0080 5c00 0080 9a01 0080 7d01 0080
00000010: 9e01 0000 8b01 0000 a100 0080 5401 0080
00000020: 1201 0000 3900 0000 0c01 0000 7a01 0080
00000030: 9e01 0000 1800 0080 8e00 0000 5c00 0080
00000040: 3601 0000 0b01 0000 7901 0000 1f01 0000
00000050: 5b00 0080 6100 0000 a400 0000 9501 0080
00000060: fb00 0080 e100 0000 5201 0080 e800 0000
00000070: 0c00 0000 0a00 0000 2d01 0080 c501 0080
00000080: c200 0080 4901 0080 e101 0080 9d00 0080
00000090: 0902 0000 2b00 0000 b901 0080 dd00 0000
000000a0: 4700 0080 6a01 0080 3d00 0080 5c00 0080
000000b0: d400 0080 1f01 0000 2201 0080 d900 0000
000000c0: b901 0080 d301 0080 4901 0080 e400 0000
000000d0: 3200 0000 c000 0000 4f01 0080 1800 0000
000000e0: bd01 0000 8301 0080 6301 0000 1a01 0080
000000f0: 8d01 0080 1b01 0080 0800 0000 a500 0080
00000100: c704 0000 0000 0000 e000 0080 3b00 0080
00000110: 6301 0000 8400 0000 0b00 0080 0300 0080
00000120: 4901 0080 1400 0000 9801 0080 2701 0080
00000130: 2200 0000 8401 0000 4600 0080 fe04 0080
00000140: 2801 0080 bc01 0000 bf00 0080 2001 0080
00000150: 8d00 0000 4f00 0080 2c00 0000 df00 0080
00000160: 5d01 0080 4700 0000 5101 0000 f100 0080
00000170: 5600 0000 e100 0000 7d00 0000 1300 0000
00000180: 0f01 0080 aa01 0000 2001 0000 b800 0080
00000190: 9700 0080 c500 0080 5400 0080 9d01 0000
000001a0: 4901 0080 4402 0080 7800 0080 f900 0080
000001b0: f100 0080 8d00 0080 6401 0000 c000 0000
000001c0: a201 0000 6401 0000 d000 0080 9300 0080
000001d0: 6000 0000 b300 0000 3b00 0000 ad00 0080
000001e0: db00 0080 d200 0080 7f00 0080 bf00 0000
000001f0: af01 0080 0500 0080 f900 0080 ba00 0000
00000200: f001 0080 3c00 0080 bf01 0080 6c00 0080
00000210: e802 0080 7400 0080 3e00 0080 3601 0080
00000220: c800 0000 6800 0000 5601 0080 0b01 0080
00000230: b201 0000 4d00 0000 5800 0000 2300 0080
00000240: 3b01 0080 4b00 0000 fc00 0000 4c01 0080
00000250: 8500 0080 0601 0080 4200 0000 e200 0000
00000260: 0200 0080 1e01 0080 c601 0000 3901 0000
00000270: 8400 0000 d201 0080 8501 0000 7101 0080
00000280: a000 0080 3300 0000 fd00 0000 4100 0080
00000290: d400 0080 7200 0000 8501 0000 bf01 0000
000002a0: cd00 0080 7101 0000 3a00 0000 6101 0000
000002b0: a901 0000 3a00 0080 5f00 0080 bc00 0080
000002c0: 4400 0000 7f01 0000 9f00 0080 c601 0000
000002d0: 1f00 0000 b800 0080 8c01 0000 9e00 0080
000002e0: f500 0080 3700 0000 4900 0000 7e00 0000
000002f0: 3302 0080 2d01 0080 1e01 0000 5201 0080
00000300: 4700 0080 cc03 0000 4c00 0000 6101 0000
00000310: a601 0000 eb01 0080 4900 0000 2600 0000
00000320: 4101 0000 3900 0000 2501 0000 4301 0080
00000330: a201 0080 cd00 0080 c800 0000 b101 0080
00000340: 6e01 0080 6400 0080 4100 0000 4300 0000
00000350: 5a00 0000 1601 0080 6e00 0000 cd00 0080
00000360: 0002 0000 6b00 0080 7201 0080 2601 0000
00000370: 3301 0000 2a01 0000 5b00 0000 1201 0000
00000380: 9300 0080 0200 0000 7901 0000 c201 0000
00000390: 0901 0080 1d01 0080 da00 0000 4400 0080
000003a0: 7e01 0000 a001 0000 b900 0080 3b00 0080
000003b0: 3402 0080 0901 0080 fa00 0000 1f00 0080
000003c0: b800 0000 6a01 0080 f800 0000 7101 0080
000003d0: 5800 0080 1201 0000 0901 0080 dd00 0000
000003e0: 3800 0000 6201 0000 b601 0080 5b00 0080
000003f0: 3500 0000 4700 0000 a701 0000 bd00 0000
-6.3e-43 -1.29e-43 -5.75e-43 -5.34e-43 5.8e-43 5.54e-43 -2.26e-43 -4.76e-43
3.84e-43 8e-44 3.76e-43 -5.3e-43 5.8e-43 -3.4e-44 1.99e-43 -1.29e-43
4.34e-43 3.74e-43 5.28e-43 4.02e-43 -1.28e-43 1.36e-43 2.3e-43 -5.68e-43
-3.52e-43 3.15e-43 -4.74e-43 3.25e-43 1.7e-44 1.4e-44 -4.22e-43 -6.35e-43
-2.72e-43 -4.61e-43 -6.74e-43 -2.2e-43 7.3e-43 6e-44 -6.18e-43 3.1e-43
-1e-43 -5.07e-43 -8.5e-44 -1.29e-43 -2.97e-43 4.02e-43 -4.06e-43 3.04e-43
-6.18e-43 -6.54e-43 -4.61e-43 3.2e-43 7e-44 2.69e-43 -4.7e-43 3.4e-44
6.24e-43 -5.42e-43 4.97e-43 -3.95e-43 -5.56e-43 -3.97e-43 1.1e-44 -2.31e-43
1.714e-42 0.0 -3.14e-43 -8.3e-44 4.97e-43 1.85e-43 -1.5e-44 -4e-45
-4.61e-43 2.8e-44 -5.72e-43 -4.13e-43 4.8e-44 5.44e-43 -9.8e-44 -1.791e-42
-4.15e-43 6.22e-43 -2.68e-43 -4.04e-43 1.98e-43 -1.11e-43 6.2e-44 -3.12e-43
-4.89e-43 1e-43 4.72e-43 -3.38e-43 1.2e-43 3.15e-43 1.75e-43 2.7e-44
-3.8e-43 5.97e-43 4.04e-43 -2.58e-43 -2.12e-43 -2.76e-43 -1.18e-43 5.79e-43
-4.61e-43 -8.13e-43 -1.68e-43 -3.49e-43 -3.38e-43 -1.98e-43 4.99e-43 2.69e-43
5.86e-43 4.99e-43 -2.91e-43 -2.06e-43 1.35e-43 2.51e-43 8.3e-44 -2.42e-43
-3.07e-43 -2.94e-43 -1.78e-43 2.68e-43 -6.04e-43 -7e-45 -3.49e-43 2.6e-43
-6.95e-43 -8.4e-44 -6.26e-43 -1.51e-43 -1.043e-42 -1.63e-43 -8.7e-44 -4.34e-43
2.8e-43 1.46e-43 -4.79e-43 -3.74e-43 6.08e-43 1.08e-43 1.23e-43 -4.9e-44
-4.41e-43 1.05e-43 3.53e-43 -4.65e-43 -1.86e-43 -3.67e-43 9.2e-44 3.17e-43
-3e-45 -4.01e-43 6.36e-43 4.39e-43 1.85e-43 -6.53e-43 5.45e-43 -5.17e-43
-2.24e-43 7.1e-44 3.55e-43 -9.1e-44 -2.97e-43 1.6e-43 5.45e-43 6.26e-43
-2.87e-43 5.17e-43 8.1e-44 4.95e-43 5.96e-43 -8.1e-44 -1.33e-43 -2.63e-43
9.5e-44 5.37e-43 -2.23e-43 6.36e-43 4.3e-44 -2.58e-43 5.55e-43 -2.21e-43
-3.43e-43 7.7e-44 1.02e-43 1.77e-43 -7.89e-43 -4.22e-43 4.01e-43 -4.74e-43
-1e-43 1.362e-42 1.06e-43 4.95e-43 5.91e-43 -6.88e-43 1.02e-43 5.3e-44
4.5e-43 8e-44 4.1e-43 -4.53e-43 -5.86e-43 -2.87e-43 2.8e-43 -6.07e-43
-5.13e-43 -1.4e-43 9.1e-44 9.4e-44 1.26e-43 -3.9e-43 1.54e-43 -2.87e-43
7.17e-43 -1.5e-43 -5.18e-43 4.12e-43 4.3e-43 4.18e-43 1.28e-43 3.84e-43
-2.06e-43 3e-45 5.28e-43 6.3e-43 -3.71e-43 -4e-43 3.05e-43 -9.5e-44
5.35e-43 5.83e-43 -2.59e-43 -8.3e-44 -7.9e-43 -3.71e-43 3.5e-43 -4.3e-44
2.58e-43 -5.07e-43 3.48e-43 -5.17e-43 -1.23e-43 3.84e-43 -3.71e-43 3.1e-43
7.8e-44 4.96e-43 -6.14e-43 -1.28e-43 7.4e-44 1e-43 5.93e-43 2.65e-43

mha.zl_to_score.layers.0.bias f4 [16]
00000000: c401 0000 4701 0080 ad00 0080 8e01 0080
00000010: c101 0080 0501 0080 c600 0080 0500 0000
00000020: bc01 0080 1600 0000 ae03 0000 3800 0080
00000030: 4300 0080 8200 0080 8400 0000 4200 0000
6.33e-43 -4.58e-43 -2.42e-43 -5.58e-43 -6.29e-43 -3.66e-43 -2.77e-43 7e-45
-6.22e-43 3.1e-44 1.32e-42 -7.8e-44 -9.4e-44 -1.82e-43 1.85e-43 9.2e-44

mha.zl_to_score.layers.2.weight f4 [1, 16]
00000000: 2100 0000 8100 0000 3100 0080 3601 0080
00000010: b101 0000 2601 0080 0401 0000 8e01 0000
00000020: 1c01 0000 9000 0080 6900 0080 2c01 0000
00000030: a500 0080 b601 0080 1b01 0000 a300 0080
4.6e-44 1.81e-43 -6.9e-44 -4.34e-43 6.07e-43 -4.12e-43 3.64e-43 5.58e-43
3.98e-43 -2.02e-43 -1.47e-43 4.2e-43 -2.31e-43 -6.14e-43 3.97e-43 -2.28e-43
